Soft Gripper Grasping Objects Project/Pretrained/soft_gripper_pretrained/nn/last_SoftGripper_ep_10000_rew__2084.56_.pth (torch, 570402 bytes, 36 tensors)

value_mean_std.running_mean f8 [1]
0	0x4083c21534d510f8	632.2603546758464

value_mean_std.running_var f8 [1]
0	0x40e39530cf8b69bf	40105.52533503202

value_mean_std.count f8 []
0	0x41e3880000200000	2621440001.0

running_mean_std.running_mean f8 [16]
0	0x0000000000000000	0.0
1	0x3fc535fedbc12178	0.16571031313129558
2	0xbf76baa30e725a5d	-0.005549084605397239
3	0xbfb09355062518c6	-0.06474810981771659
4	0x3fe2b38731736e1a	0.5844150510633341
5	0x3fa449861f66fc9e	0.039623442967689146
6	0xbf8e6ad787087e0a	-0.014852222259889043
7	0x3ff64902ae552f77	1.3928248224137556
8	0x3f97875c9c21e4db	0.022977301625790907
9	0xbfa3ba41af659da2	-0.038530399952658514
10	0x3ffb1ed4d728aad5	1.6950271992342796
11	0x3f89876f3a22ce77	0.012465352021855154
12	0x3f7b97655580130d	0.0067361791952904706
13	0xbfa0c481242a205a	-0.032749210037821455
14	0x3fefdae9529982ed	0.9954725850367062
15	0xbfb8d13c1aa929d1	-0.09694266940019892

running_mean_std.running_var f8 [16]
0	0x3e0a36e2eac65c81	7.629394525429118e-10
1	0x3fc44cd36a508f5a	0.1585945386042294
2	0x3fc1eea6172a14cb	0.14009548312257034
3	0x3fbfb0784e6ffe9f	0.12378646769502176
4	0x3fca28da7adbc7d1	0.20437174796057758
5	0x3f94956b362e4b60	0.02010123747056569
6	0x3f97b89738759476	0.023165095158578862
7	0x3fb19062473a61c5	0.06860937346426173
8	0x3f9516effce3487a	0.020595311937377826
9	0x3f9a60b4b364f470	0.025759528588640668
10	0x3fb0ee005340ff42	0.06613161118093294
11	0x3f603a9ca61fca20	0.0019810733365315386
12	0x3f5ea8f693c68b54	0.001871338651746786
13	0x3f6f1423ddd2b1d8	0.003793783237219222
14	0x3f1d7d88e2951a15	0.00011249683361311991
15	0x3f5a2ea332ad8138	0.0015980333070829255

running_mean_std.count f8 []
0	0x41d3880000400000	1310720001.0

a2c_network.sigma f4 [7]
0	0xc0574c1b	-3.36402
1	0xc06ee5b6	-3.7327704
2	0xc0545b5e	-3.3180766
3	0xc058c054	-3.3867388
4	0xc04335f3	-3.0501678
5	0xc0226b2b	-2.537791
6	0xc0179c55	-2.3689167

a2c_network.actor_mlp.0.weight f4 [256, 16]
0	0x3e4558c6	0.19272146
1	0x3df8d2fc	0.12149617
2	0xbd9bbc3c	-0.07604262
3	0xbd574d1e	-0.05256378
4	0x3c8925ae	0.0167416
5	0x3e3e94c2	0.18611434
6	0xba58e932	-0.0008274495
7	0x3f0ab743	0.54185885
8	0xbed85a23	-0.4225627
9	0xbd9de3a8	-0.077094376
10	0xbed70ccf	-0.4200196
11	0xbed67fec	-0.41894472
12	0x3d393a1f	0.045221444
13	0xbeb1f00d	-0.34753457
14	0x3eb2bd59	0.34910086
15	0xbddb7fbb	-0.10717722
16	0x3e45a396	0.19300684
17	0x39c9506f	0.00038397635
18	0x3ce06a73	0.027394509
19	0x3d06e637	0.032934394
20	0xbd3858b2	-0.04500646
21	0xbd9a34c2	-0.07529594
22	0x3c6d8162	0.014496179
23	0xbf820828	-1.0158739
24	0x3d5fba75	0.05462118
25	0xbb967b5b	-0.004592342
26	0x3f3d9d24	0.740679
27	0x3d9b4f6a	0.075835064
28	0x3e1936ed	0.14962359
29	0xbddca5bc	-0.10773799
30	0x3c3aa19b	0.011391069
31	0xbd66e5b8	-0.05637142
32	0x3e02017a	0.12695876
33	0x3da1e3b6	0.079047605
34	0xbdc67e28	-0.09692031
35	0x3c0e5458	0.008687101
36	0x3d097ccb	0.033566277
37	0x3ec01bd4	0.3752123
38	0x3e971bca	0.2951339
39	0x3ec7b830	0.3900771
40	0xbee26bab	-0.4422277
41	0xbe8e346f	-0.2777438
42	0x3c4755da	0.012166465
43	0xbef37c9b	-0.47556004
44	0xbe53b9d5	-0.20676358
45	0xbd141cb7	-0.036160197
46	0xbc544494	-0.012955803
47	0x3d416099	0.047211263
48	0x3d9ce298	0.07660407
49	0xbce280b0	-0.027649254
50	0x3cfe590d	0.031048322
51	0xbd49eaa6	-0.049296044
52	0xbdefcbd6	-0.117088005
53	0xbf3a4578	-0.7276225
54	0x3f32c045	0.6982463
55	0x3ecbc892	0.3980146
56	0x3f3f4114	0.74708676
57	0xbf3de30a	-0.7417456
58	0xbeac4866	-0.33648986
59	0xbc01b43c	-0.007916506
60	0xbe0191fc	-0.12653345
61	0x3e0bf716	0.13668475
62	0xbebf88af	-0.3740897
63	0x3d83e150	0.06439459
64	0xbe043474	-0.12910634
65	0xbd6a2193	-0.057160925
66	0xbe83586b	-0.25653395
67	0x3b55808c	0.003257784
68	0x3e5a3164	0.21307904
69	0x3c3c2d7f	0.0114854565
70	0x3ee1f33e	0.44130892
71	0xbe23cd7f	-0.1599636
72	0xbe8b7983	-0.27241144
73	0xbe0d653d	-0.1380815
74	0x3d893387	0.06699281
75	0xbe89803c	-0.26855648
76	0xbd99324a	-0.07480295
77	0x3e2a7397	0.16645657
78	0xbef46617	-0.47734138
79	0xbe719767	-0.23592912
80	0x3e6a68d2	0.22891548
81	0xbdeac28d	-0.11462889
82	0x3bd2c371	0.00643199
83	0xbb5189c6	-0.0031972989
84	0xbd56691e	-0.05234634
85	0x3dd22d2b	0.10262521
86	0x3bfbc4c2	0.0076833675
87	0xbfa1a774	-1.2629228
88	0x3e141d22	0.14464238
89	0xbe2a2a31	-0.16617657
90	0xbe92ae73	-0.2864872
91	0xbe4cc38f	-0.19996475
92	0xbe804b9e	-0.2505769
93	0x3d9f7fea	0.077880695
94	0xbe35e6c6	-0.17763814
95	0x3ddd8b68	0.10817605
96	0x3d9dc71c	0.07703993
97	0xbc82fd70	-0.015989989
98	0xbe6d546d	-0.23176737
99	0x3db47307	0.08811002
100	0xbaa96f2f	-0.0012926812
101	0xbdeb264d	-0.11481915
102	0x3e772a79	0.24137296
103	0x3e133a4a	0.14377704
104	0x3e926675	0.28593794
105	0xbe18ed2f	-0.14934228
106	0xbe8aec63	-0.27133474
107	0xbe46109c	-0.19342273
108	0xbf02d27e	-0.51102436
109	0x3e0331bc	0.12811941
110	0xbf15bf3c	-0.58494925
111	0xbebe06fe	-0.3711471
112	0x3e56a5f6	0.20961747
113	0xbe3d7f0f	-0.185055
114	0x3e045bd8	0.1292566
115	0x3e8124f3	0.25223503
116	0xbe52fc06	-0.20603952
117	0x3efd5f7a	0.49486905
118	0x3e8daeae	0.27672333
119	0xbecf4e43	-0.40489396
120	0xbf0f36e1	-0.55943114
121	0xbe9a918c	-0.30189168
122	0x3daed810	0.085373044
123	0x3d69bc87	0.05706456
124	0x3e347525	0.17622812
125	0xbebff1c4	-0.3748914
126	0xbd0c8ce5	-0.034314055
127	0xbee7d51d	-0.4527978
128	0xbd30d148	-0.043168336
129	0x3d620ecb	0.05518989
130	0x3dd5d30c	0.104406446
131	0xbc00fe35	-0.007873108
132	0xbd68bb25	-0.0568191
133	0xbebb2bdd	-0.36556903
134	0x3f119553	0.56868476
135	0xbd91ebcc	-0.07125053
136	0x3e8b03d0	0.27151346
137	0xbf1ddd67	-0.6166596
138	0x3e2da708	0.16958249
139	0xbe8a74b4	-0.27042162
140	0x3e015333	0.12629394
141	0x3db12de3	0.0865133
142	0xbd5e3d14	-0.054257467
143	0xbe647309	-0.22309507
144	0x3e68b10c	0.22723788
145	0x3d881ed2	0.066465035
146	0x3d1db230	0.03850001
147	0x3cd60727	0.026126457
148	0xbb109fef	-0.0022067984
149	0xbe7d515d	-0.24738069
150	0x3ea8dcd3	0.32980976
151	0x3e0946d1	0.1340592
152	0x3e9f1463	0.3107024
153	0xbebabe29	-0.36473206
154	0xbe183f6a	-0.1486794
155	0xbd838811	-0.06422437
156	0xbe1a53e2	-0.15071061
157	0x3e3ed62f	0.18636392
158	0xbf2abae8	-0.66691446
159	0xbe2f271f	-0.17104767
160	0xbe3f404c	-0.18676871
161	0x3db356cb	0.08756789
162	0x3dd0c92c	0.101946205
163	0xbe15adb7	-0.14617048
164	0xbc776fa1	-0.015102298
165	0x3ce6d2e8	0.02817674
166	0xbe000c3f	-0.12504672
167	0xbe9e2da5	-0.308942
168	0x3d637612	0.055532522
169	0x3e4972cc	0.19672698
170	0x3ed23702	0.41057593
171	0xbbd2be1e	-0.006431355
172	0xbe7c7e3c	-0.2465753
173	0x3e192d8e	0.14958784
174	0xbe8fd9e8	-0.28095937
175	0xbe493752	-0.1965001
176	0x3e23a310	0.15980172
177	0x3b13ac6f	0.0022533198
178	0xbc74f916	-0.014951965
179	0xbcdc2c8b	-0.026876708
180	0x3d3ea236	0.046541415
181	0x3ef19a5c	0.4718808
182	0x3e9e8dd0	0.3096757
183	0xbd26f89e	-0.040764444
184	0xbf1b614b	-0.6069533
185	0xbe870b4f	-0.26375815
186	0x3dcea216	0.10089509
187	0xbd0b0139	-0.033936713
188	0x3d1cf9fe	0.03832435
189	0xbe4084d4	-0.1880067
190	0xbed970a4	-0.4246875
191	0xbe70e89b	-0.23526232
192	0xbda6e48c	-0.081490606
193	0xbba3bceb	-0.004996886
194	0x3e8d6087	0.27612707
195	0xbe0a7910	-0.13522744
196	0xbeaf7eca	-0.3427642
197	0xbd8a2b62	-0.06746556
198	0x3d0fe42f	0.035129722
199	0x3f08a182	0.5337144
200	0x3e715206	0.23566446
201	0xbc1e5e23	-0.009665999
202	0xbd90b562	-0.07065846
203	0xbe5a58cc	-0.21322936
204	0xbee53dd7	-0.44773743
205	0x3e8ebae1	0.27876952
206	0x3d86da26	0.06584577
207	0xbc9ef238	-0.019402608
208	0xbe7eab7e	-0.24870107
209	0x3bc02b7b	0.0058645583
210	0x3df7d440	0.1210103
211	0x3dea1427	0.11429625
212	0xbdad24c3	-0.08454277
213	0xbeeed59d	-0.4664735
214	0xbedf9712	-0.43669945
215	0x3ec8f4db	0.3924931
216	0x3e9bce30	0.30430746
217	0x3ef95a8f	0.48701903
218	0x3c50cd0f	0.012744202
219	0x3d924faf	0.07144105
220	0xbdea7f09	-0.11450011
221	0xbeafff17	-0.34374306
222	0xbdb5d261	-0.08878017
223	0xbe270eb1	-0.16314198
224	0x3dd197e4	0.10234049
225	0x3d1fbbdb	0.038997512
226	0xbd393361	-0.045215014
227	0xbd9f9d24	-0.07793644
228	0xbdf76a4b	-0.12080821
229	0xbef596ad	-0.4796652
230	0xbf0b81e4	-0.5449507
231	0x3e87dad5	0.26534143
232	0x3f0232e2	0.5085889
233	0x3f08ebb7	0.5348467
234	0xbe8ab122	-0.27088267
235	0x3dcef403	0.10105135
236	0xbe377e4c	-0.17919272
237	0xbdd85ce6	-0.10564594
238	0xbec15c0a	-0.37765533
239	0xbe501855	-0.20321782
240	0x3e0f3acc	0.13987273
241	0x3b957f77	0.004562314
242	0xbe1b4eef	-0.1516683
243	0xbd93e8ee	-0.07222162
244	0x3e78bbdd	0.24290414
245	0xbf529c37	-0.82269615
246	0x3f33ffff	0.70312494
247	0x3aeefc34	0.0018233121
248	0xbe58e089	-0.21179403
249	0x3e5b8a99	0.2143959
250	0x3de22aca	0.110433176
251	0xbdc9a531	-0.09845961
252	0xbdbed25e	-0.09317468
253	0xbe4972c1	-0.19672681
254	0xbeae3f66	-0.34032744
255	0xbe560009	-0.20898451

a2c_network.actor_mlp.0.bias f4 [256]
0	0xb8c0859e	-9.1801616e-05
1	0x3dbf94da	0.09354563
2	0xb936df95	-0.00017440163
3	0xbd07f909	-0.033196483
4	0xbeb9a25c	-0.36256683
5	0xbecfb589	-0.40568188
6	0xbdf4f821	-0.11961389
7	0xbe2571f2	-0.16156748
8	0xbe05d51c	-0.13069576
9	0x3ecf79e0	0.4052267
10	0xbdd04403	-0.10169222
11	0x3ef2b15e	0.47400945
12	0x3ea2d1cb	0.31800684
13	0x3e9719fe	0.29512018
14	0x3b023978	0.001987068
15	0xbf03ed0f	-0.515336
16	0x3ed9b6dc	0.42522323
17	0xbf0df40b	-0.55450505
18	0x3f079474	0.52960896
19	0xbf026540	-0.50935745
20	0xbe651a6c	-0.2237336
21	0x3e684024	0.22680718
22	0x3e5dc4ea	0.21657148
23	0xbc340f81	-0.010990025
24	0x3dbd395c	0.09239456
25	0x3eb451c1	0.35218623
26	0x3e4bbcc2	0.19896224
27	0x3ecf715a	0.40516168
28	0x3e8c7af8	0.27437568
29	0xbe5ee2ac	-0.21766156
30	0x3d893b75	0.06700794
31	0x3ee3fe8e	0.44530147
32	0xbe3a5054	-0.18194705
33	0x3e0f526d	0.13996287
34	0xbe29ccbd	-0.16582008
35	0x3e87bc18	0.26510692
36	0x3ebd00f0	0.36914778
37	0x3d051c65	0.032497782
38	0xbdfea7db	-0.1243436
39	0xbc9990ce	-0.018745806
40	0x3eaf427f	0.3423042
41	0xbde9259d	-0.11384127
42	0x3ea1eaff	0.316246
43	0x3e87f43d	0.26553527
44	0xbe795cde	-0.24351832
45	0x3e8a406c	0.27002275
46	0x3e4363ea	0.19081083
47	0xbe86cb60	-0.26327038
48	0x3ba0e734	0.004910374
49	0x3e5b4553	0.21413164
50	0xbd771fa7	-0.06033292
51	0x3c65b2a0	0.014019638
52	0x3ebea774	0.37237132
53	0x3d8ad916	0.06779687
54	0xbeb08a31	-0.34480432
55	0x3cde784c	0.027156971
56	0xbe6cddd6	-0.23131499
57	0xbbe5e319	-0.0070155975
58	0xbda4aed2	-0.08041157
59	0xbdd7b4b6	-0.10532515
60	0x3e4ef96e	0.20212337
61	0x3e0dba87	0.13840686
62	0x3ec8250b	0.39090762
63	0xbd470d44	-0.048596635
64	0xbe42af4c	-0.19012183
65	0x3e7086bd	0.23488899
66	0xbef15d35	-0.47141424
67	0xbdbe43a7	-0.092902474
68	0xbe8ebf2a	-0.27880222
69	0x3e6861d0	0.22693563
70	0xbe4341c9	-0.19068064
71	0x3e741d0c	0.23839206
72	0x3e8c7258	0.27430987
73	0x3db076de	0.08616422
74	0xbe72fc18	-0.23728979
75	0xbd0b4636	-0.034002505
76	0x3ee0c249	0.43898228
77	0x3e9aaf16	0.30211705
78	0xbc4d3d2e	-0.012526793
79	0xbe5ad680	-0.21370888
80	0x3e56c84f	0.20974849
81	0x3dd09d8f	0.10186302
82	0x3f666e9e	0.9001254
83	0x3ead9c3a	0.33908254
84	0xbd6fd7cb	-0.058555406
85	0x3e4a52da	0.19758168
86	0xbec83779	-0.39104822
87	0xbe944eb1	-0.28966287
88	0xbd6b22f5	-0.057406384
89	0x3edc4f14	0.43029082
90	0x3e5e29a7	0.21695577
91	0xbe57931b	-0.2105221
92	0x3ea4524d	0.3209404
93	0x3e9737b1	0.29534677
94	0x3f057dff	0.5214538
95	0x3e755092	0.23956516
96	0x3c71b42c	0.014752429
97	0x3eb57d07	0.3544695
98	0x3f069ca2	0.5258275
99	0x3eaba554	0.33524573
100	0x3e0bad3f	0.13640307
101	0xbefd7a79	-0.49507502
102	0xbef82a9f	-0.48470017
103	0x3e870f66	0.26378936
104	0xbd04060f	-0.03223234
105	0x3e5cd693	0.21566229
106	0xbefa6baa	-0.48910266
107	0x3e091da7	0.13390218
108	0x3dbab723	0.09116962
109	0x3e6f3811	0.23361231
110	0x3d9e7544	0.077372104
111	0x3f089fad	0.53368646
112	0x3e5082a8	0.20362341
113	0x3dedca1f	0.11610817
114	0x3da0b5ee	0.078472
115	0x3e047b0e	0.12937567
116	0x3ed34821	0.41265967
117	0xbdfda957	-0.12385815
118	0xbed01d22	-0.40647227
119	0xbcb4cd22	-0.022070471
120	0xbc95278e	-0.018207338
121	0x3ec0f94b	0.37690195
122	0xbee81878	-0.45331168
123	0x3da3ad32	0.07992019
124	0x3e92b210	0.28651476
125	0xbedd329f	-0.43202683
126	0x3e3be1b2	0.18347815
127	0xbe3266ce	-0.1742203
128	0x3dbac61c	0.091198176
129	0xbe639923	-0.22226386
130	0xbd94bf3b	-0.07263037
131	0x3c70766d	0.014676672
132	0x3e427c9d	0.18992849
133	0x3ebf24ad	0.3733267
134	0xbcad1243	-0.021126872
135	0xbeb5630c	-0.3542713
136	0x3dee18a4	0.116257936
137	0x3e3909a9	0.18070091
138	0xbd20d9d8	-0.039270252
139	0xbedfabdb	-0.43685803
140	0x3e64f616	0.223595
141	0xbebd9116	-0.37024754
142	0x3dda50f8	0.10659975
143	0xbe80f35b	-0.25185665
144	0xbe5a2bf7	-0.21305834
145	0xbd2c9c2b	-0.04214112
146	0x3eae3a24	0.34028733
147	0x3d651483	0.055927765
148	0xbe217ea3	-0.15770964
149	0xbecc7579	-0.39933375
150	0x3e77dd38	0.24205482
151	0x3f17361b	0.59066933
152	0xbe7d8194	-0.24756461
153	0xbee539e1	-0.4477072
154	0x3e77a01a	0.24182168
155	0xbea8f7fc	-0.33001697
156	0xbd26ec5c	-0.040752754
157	0xbe8dcea4	-0.27696717
158	0x3cc78df1	0.024359675
159	0x3e9e2d82	0.30894095
160	0x3e478a27	0.19486295
161	0xbe020179	-0.12695874
162	0xbea3c453	-0.3198572
163	0xbead3fcb	-0.33837733
164	0xbcd26fed	-0.025688136
165	0xbee9987d	-0.45624152
166	0xbe904b63	-0.28182516
167	0x3dca612c	0.09881815
168	0xbe1c5843	-0.15268044
169	0xbeba504e	-0.36389393
170	0x3d5fbdb8	0.05462429
171	0xbe8d5059	-0.27600363
172	0xbe5c8ccb	-0.21538083
173	0x3e9a65ed	0.30155888
174	0x3bafd6e6	0.005366194
175	0x3de2606c	0.11053547
176	0x3e096582	0.13417628
177	0x3d2dbb2f	0.04241484
178	0x3e689393	0.22712545
179	0xbe930bbf	-0.287199
180	0x3e2374c1	0.15962507
181	0xbcb3d54e	-0.021952298
182	0xbee77c7d	-0.45212165
183	0xbf53d815	-0.8275159
184	0xbeff3a55	-0.4984919
185	0x3d28922c	0.041155025
186	0x3de14ff6	0.110015795
187	0xbef66201	-0.48121646
188	0x3dae4e47	0.08511024
189	0x3eaa30e9	0.3324044
190	0xbcbd2c79	-0.023092495
191	0xbeb1e155	-0.34742227
192	0x3e4d072d	0.20022269
193	0x3d280e01	0.04102898
194	0x3e2760af	0.16345476
195	0x3dfdd238	0.12393612
196	0x3c902e58	0.017600223
197	0xbea3f1e4	-0.32020485
198	0x3ea63ca5	0.32468143
199	0x3ebebc84	0.372532
200	0xbead8288	-0.3388865
201	0xbe1102df	-0.14161251
202	0x3e321bc9	0.17393412
203	0x3adf5c4b	0.0017041055
204	0x3e49f0af	0.1972072
205	0xbeaa61a3	-0.33277616
206	0xbeece7ac	-0.46270502
207	0x3e182a08	0.14859784
208	0xbd02e114	-0.031952932
209	0xbd057bc5	-0.03258874
210	0x3dc12f49	0.09432847
211	0x3ed1879f	0.40923783
212	0x3d46ed06	0.048565887
213	0xbea35ec6	-0.31908244
214	0xbd1e7239	-0.03868315
215	0x3e3edca2	0.18638852
216	0xbe1f4833	-0.15554886
217	0xbeb0d37d	-0.34536353
218	0x3eb94749	0.361872
219	0xbe6368b5	-0.22207911
220	0x3e03996a	0.12851492
221	0xbe8931c5	-0.26795784
222	0x3ea95369	0.3307145
223	0x3ebe8cc0	0.3721676
224	0xbcc8619d	-0.024460608
225	0xbd83d47d	-0.06437013
226	0xbc9c1057	-0.01905076
227	0xbe0d7147	-0.13812743
228	0xbe96e490	-0.29471254
229	0x3e1114e2	0.14168122
230	0xbe9f0547	-0.31058714
231	0x3e9d8c63	0.3077117
232	0x3d9215ca	0.07133062
233	0xbea17b83	-0.31539544
234	0xbed8a76c	-0.42315233
235	0xbef7b070	-0.483768
236	0x3da87632	0.08225669
237	0x3e187bcc	0.14890975
238	0xbe2e9a16	-0.17050967
239	0xbeb3b5a0	-0.35099506
240	0x3ec7ef3b	0.39049706
241	0xbe85275b	-0.26006588
242	0xbe8cf857	-0.27533218
243	0x3dae3665	0.08506469
244	0xbed3cff6	-0.413696
245	0x3e2d5541	0.16927053
246	0xbd04d6c2	-0.03243137
247	0x3ec1a55f	0.3782148
248	0x3ed1c94b	0.40973887
249	0x3e3ee2a8	0.1864115
250	0x3e844e2c	0.2584089
251	0xbf0b82ec	-0.54496646
252	0x3daa5a3d	0.08317993
253	0x3e99ab27	0.3001339
254	0xbe2580e9	-0.16162457
255	0xbdb4b5f1	-0.08823765

a2c_network.actor_mlp.2.weight f4 [128, 256]
0	0xbeb0672a	-0.34453708
1	0x3bda4eb7	0.0066622156
2	0xbe21283b	-0.15738003
3	0x3df29f84	0.118468314
4	0xbe373bbd	-0.17893882
5	0x3d74e5b2	0.059789367
6	0xbdf6578f	-0.12028419
7	0xbd852cf2	-0.06502713
8	0x3e3b03dd	0.18263192
9	0xbec54418	-0.38528514
10	0x3e6d8358	0.23194635
11	0xbef249be	-0.47321886
12	0xbd8133dc	-0.063087195
13	0xbe1d06c1	-0.15334608
14	0xbd95938c	-0.07303533
15	0xbe9bdbc1	-0.30441096
16	0xbd705749	-0.05867699
17	0x3d9fa022	0.07794215
18	0xbe937eb4	-0.28807604
19	0xbdaf3168	-0.08554345
20	0xbeb41ea1	-0.35179618
21	0xbef8dac1	-0.48604396
22	0x3e0494ad	0.1294734
23	0xbd391a89	-0.04519132
24	0xbe264fce	-0.1624138
25	0xbea5d99e	-0.3239259
26	0xbdbb4c88	-0.091454566
27	0xbe0e2843	-0.13882546
28	0xbd333924	-0.043755665
29	0x3e1bc236	0.15210804
30	0xbe0998bf	-0.13437174
31	0xbef2252e	-0.4729399
32	0xbc2741da	-0.010208571
33	0x3c7b4227	0.015335596
34	0xbe8e59cd	-0.27802888
35	0xbe001d78	-0.12511241
36	0xbdd9a9a7	-0.10628062
37	0xbdfc8f3c	-0.12332007
38	0x3de75fe9	0.1129759
39	0x3db993d7	0.09061401
40	0xbe849332	-0.2589355
41	0x3d9142e3	0.07092836
42	0xbebe525e	-0.37172216
43	0xbe7fb034	-0.2496956
44	0x3e4586fc	0.19289774
45	0x3cc6596e	0.024212565
46	0xbe3e72be	-0.18598458
47	0xbc08e428	-0.008355178
48	0x3e93fb22	0.28902537
49	0xbec895c1	-0.39176753
50	0x3db3cbfa	0.0877914
51	0xbd65e9de	-0.056131236
52	0xbebf1ce3	-0.37326726
53	0xbcc177ca	-0.02361669
54	0x3d7775f3	0.06041522
55	0x3dc2a0ec	0.0950335
56	0xbd54d823	-0.051963937
57	0x3d88f70e	0.06687747
58	0x3ddcc7a5	0.10780267
59	0xbd6103e3	-0.054935347
60	0xbecd4fe6	-0.4010002
61	0xbdc11218	-0.09427279
62	0xbec18cb7	-0.3780267
63	0x3d2819ee	0.041040353
64	0x3e4e958c	0.20174235
65	0xbebf08d0	-0.3731141
66	0xbd11b524	-0.03557314
67	0x3c936995	0.017994681
68	0x3dad036b	0.084479176
69	0xbe6250fc	-0.22101206
70	0x3d96a0dc	0.073549
71	0x3da56d08	0.08077437
72	0xbe642609	-0.22280134
73	0xbdae9f02	-0.08526422
74	0xbd8e5ca6	-0.06951265
75	0xbdb105f1	-0.08643711
76	0xbeb33041	-0.34997752
77	0xbe9165a6	-0.28397864
78	0xbe09a4bd	-0.13441749
79	0xbc8380cd	-0.016052628
80	0x3d5761b6	0.05258342
81	0xbd430d1c	-0.047619924
82	0xbeafb15a	-0.34314996
83	0xbdd6437b	-0.1046209
84	0xbd300f42	-0.0429833
85	0xbe246c75	-0.16056998
86	0x3b9f07e0	0.0048532337
87	0xbda832cd	-0.082128145
88	0xbddb0a92	-0.106953755
89	0xbe867eb9	-0.26268557
90	0xbd15c775	-0.03656717
91	0x3e709c38	0.23497093
92	0xbe90d82b	-0.28289923
93	0xbe50f6b3	-0.20406608
94	0xbe9025ee	-0.28153938
95	0xbe6b886a	-0.23001257
96	0xbcb8acc0	-0.022543311
97	0xbece1a5f	-0.40254495
98	0xbe34b49f	-0.17647026
99	0xbe347e2e	-0.17626259
100	0xbce58404	-0.028017052
101	0x3db473d2	0.088111535
102	0x3ecd79e2	0.40132052
103	0xbee8f6fe	-0.4550094
104	0xbe3811d9	-0.17975558
105	0xbd92fe8d	-0.07177458
106	0xbc4ba560	-0.012429565
107	0xbe851d37	-0.25998852
108	0xbdf8be12	-0.12145628
109	0xbe5a51c4	-0.21320254
110	0xbe027268	-0.12738955
111	0xbeb66cf9	-0.35630015
112	0xbe540395	-0.20704491
113	0xbe426ce6	-0.18986854
114	0x3dd803d5	0.10547606
115	0xbc5bc5e7	-0.013413883
116	0xbf23a0ed	-0.6391743
117	0xbe0dc548	-0.13844788
118	0x3db018fd	0.08598516
119	0x3c80d056	0.015724342
120	0xbd9cf06a	-0.07663043
121	0xbdf8b48d	-0.12143812
122	0x3e222fd8	0.15838563
123	0xbde007f5	-0.10939018
124	0xbcac0385	-0.020997772
125	0x3e0d4fb8	0.13799942
126	0xbe214b0d	-0.15751286
127	0x3e035fb4	0.12829477
128	0xbdcb19d3	-0.09917035
129	0xbf0031ac	-0.50075793
130	0x3dd17955	0.102282204
131	0x3c9b3b19	0.018949078
132	0xbe1a6856	-0.15078864
133	0xbe725f21	-0.23669101
134	0x3e209b53	0.15684251
135	0xbd7570fb	-0.0599222
136	0xbd187f23	-0.037230622
137	0xbec212ae	-0.37904876
138	0xbdfac053	-0.12243714
139	0x3e303594	0.17207938
140	0xbe0bb963	-0.13644938
141	0x3c32cc5a	0.010912979
142	0xbe02f625	-0.12789209
143	0xbd40ac14	-0.047039106
144	0x3b33677d	0.0027374916
145	0x3e63bd6f	0.22240232
146	0xbe959cbf	-0.2922115
147	0xbe9f97ef	-0.31170604
148	0xbe13aded	-0.14421816
149	0xbdbc20e0	-0.09185958
150	0xbea3a329	-0.3196042
151	0xbdb8e753	-0.090284966
152	0x3d9ac42e	0.075569496
153	0xbd7ff1a5	-0.06248631
154	0xbe6aa80a	-0.22915664
155	0xbd9caca0	-0.07650113
156	0x3d635716	0.055502973
157	0x3befe88c	0.007321423
158	0xbdbe24b7	-0.092843466
159	0xbe7f648f	-0.24940704
160	0xbe8aa945	-0.27082267
161	0x3e45bd0a	0.19310394
162	0x3e818c52	0.25302368
163	0x3e99ff64	0.3007766
164	0xbe231cd8	-0.15928972
165	0xbd12ad97	-0.03581008
166	0x3e3a6f4e	0.18206522
167	0xbcca0d88	-0.024664655
168	0x3d90da1c	0.07072851
169	0x3df0ea44	0.117634326
170	0xbe2669d0	-0.16251302
171	0x3d5133ba	0.05107472
172	0xbde47feb	-0.11157211
173	0xbdd6db36	-0.1049103
174	0x3e63f62c	0.22261876
175	0xbe8813ae	-0.26577514
176	0xbe136bfd	-0.14396663
177	0xbe9b7d12	-0.3036886
178	0xbc934acf	-0.017980007
179	0xbd3bbf21	-0.04583657
180	0xbe6f59d3	-0.23374109
181	0x3c86ba2e	0.0164462
182	0xbccd902e	-0.025093164
183	0xbdb8469a	-0.08997841
184	0xbb91e78d	-0.004452652
185	0xbd907e87	-0.07055383
186	0x3d8d1eb9	0.068906255
187	0x3d987d8f	0.074458234
188	0xbc325604	-0.010884766
189	0xbe9a17f0	-0.30096388
190	0xbc4f1944	-0.012640301
191	0x3dacdcc3	0.084405445
192	0xbebb21a1	-0.36549094
193	0x3c787518	0.015164636
194	0xbe9fc867	-0.31207582
195	0xbde3e58b	-0.11127766
196	0xbe40bf4b	-0.18822972
197	0x3e0d665f	0.13808583
198	0xbea38c2f	-0.3194289
199	0xbe870a4e	-0.2637505
200	0x3dc3ad3b	0.095545255
201	0xbe2136a7	-0.15743504
202	0xbe31712f	-0.17328332
203	0xbdd011e9	-0.10159666
204	0xbde6f5dc	-0.11277363
205	0xbc84f684	-0.016230829
206	0x3e2a1ed2	0.1661332
207	0xbe072755	-0.13198598
208	0xbddc26a6	-0.10749559
209	0x3de03e76	0.109494135
210	0xbe401999	-0.18759765
211	0xbee92c3c	-0.4554156
212	0xbe888ebd	-0.266714
213	0x3e6b59aa	0.22983423
214	0x3e2487bf	0.16067408
215	0xbe8f2977	-0.27961323
216	0x3df95b1e	0.12175582
217	0xbc2e6901	-0.010645152
218	0x3e19844b	0.14991872
219	0x3d265373	0.040606927
220	0xbdd7c181	-0.10534955
221	0x3d529069	0.05140725
222	0xbd521d53	-0.051297497
223	0xbdfc6628	-0.12324172
224	0x3dec7434	0.115456015
225	0xbe0c831f	-0.13721894
226	0x3df7d62c	0.12101397
227	0x3d51000d	0.05102544
228	0xbed5e969	-0.4177964
229	0x3b13f197	0.0022574419
230	0x3e140b33	0.14457397
231	0xbbce09a9	-0.0062877727
232	0xbe11dcdc	-0.14244407
233	0xbcd6563e	-0.02616417
234	0x3e32947d	0.17439456
235	0x3e5162af	0.20447801
236	0xbe5c71e5	-0.21527822
237	0xbc1a79d3	-0.009428459
238	0xbd4341dc	-0.04767023
239	0x3e284525	0.16432627
240	0xbea225f1	-0.31669572
241	0xbde724f6	-0.112863466
242	0xbd7feb52	-0.06248028
243	0xbe65d2c2	-0.22443679
244	0x3e8d60e2	0.27612978
245	0x3dbd1028	0.09231597
246	0x3ddf497e	0.109026894
247	0xbeb4ff1e	-0.3535089
248	0xbe89176f	-0.2677569
249	0xbe66efc5	-0.22552402
250	0xbdb3805f	-0.08764719
251	0x3eb0954d	0.34488907
252	0xbced2dc3	-0.028952485
253	0xb9da6c10	-0.00041660713
254	0x3d970f7e	0.07376002
255	0xbc3daa9e	-0.011576323

a2c_network.actor_mlp.2.bias f4 [128]
0	0xbe9f99e6	-0.31172103
1	0x3d5c68b3	0.053810786
2	0xbdc25fe0	-0.09490943
3	0x3d801da6	0.06255655
4	0xbe4ec161	-0.20190956
5	0xbeb594a5	-0.3546497
6	0xbeb38624	-0.3506328
7	0xbe922a47	-0.2854788
8	0xbda5ea6d	-0.08101354
9	0xbea02061	-0.31274703
10	0xbee2e708	-0.44316888
11	0xbe7cea12	-0.24698666
12	0xbe18a7d4	-0.14907771
13	0x3d7d6388	0.0618625
14	0x3aca5044	0.0015435298
15	0xbe96d65b	-0.29460415
16	0xbe008ba4	-0.12553269
17	0xbec0dd87	-0.37669012
18	0xbe4775fd	-0.19478603
19	0xbdbd520a	-0.09244163
20	0xbe020bb3	-0.12699775
21	0xbe868089	-0.2626994
22	0x3d93223f	0.07184266
23	0xbe16a96e	-0.1471307
24	0x3d0aca27	0.033884194
25	0xbe42d44b	-0.19026296
26	0x3c4e05bf	0.012574612
27	0xbc7fd687	-0.015615112
28	0x3d5313e7	0.051532652
29	0xbee932ce	-0.45546573
30	0xbef17fec	-0.4716791
31	0xbe12528b	-0.142893
32	0xbf10e8c6	-0.56605184
33	0xbe25cd89	-0.16191687
34	0xbd284ea6	-0.04109063
35	0x3ba6dcea	0.005092253
36	0xbeb5f2b7	-0.3553674
37	0xbca3b6c8	-0.019984618
38	0xbe2f9f95	-0.1715072
39	0xbed00820	-0.406312
40	0xbe98dfe9	-0.2985833
41	0xbde1e678	-0.110302866
42	0xbec93610	-0.3929906
43	0x3d8150a6	0.063142106
44	0xbe971888	-0.29510903
45	0x3d27df59	0.040984485
46	0xbde6f4ec	-0.11277184
47	0xbe82c8bc	-0.25543773
48	0xbd6a64dc	-0.057225093
49	0x3d0241f1	0.031801168
50	0xbe8b52b3	-0.27211532
51	0xbe6946d5	-0.22780927
52	0xbe5542df	-0.2082629
53	0xbec60de8	-0.38682485
54	0xbe47ed37	-0.19524084
55	0xbed85e2c	-0.42259347
56	0xbef5d1ad	-0.48011532
57	0xbef9888d	-0.48736992
58	0xbdf093c3	-0.11746933
59	0xbed5fc9b	-0.41794285
60	0xbeac8bd2	-0.33700424
61	0x3de414d0	0.11136782
62	0x3a97f6e7	0.0011593968
63	0x3dfb42f8	0.12268633
64	0x3d1e1552	0.03859455
65	0x3d468200	0.04846382
66	0xbea0d98f	-0.31415984
67	0x3d745290	0.05964905
68	0x3c257d29	0.010100641
69	0xbe23e8fa	-0.16006842
70	0xbc955e7f	-0.018233536
71	0xbe6b5353	-0.22981004
72	0x3d4c9e2f	0.049955543
73	0x3d96a6f2	0.07356061
74	0xbebec703	-0.3726121
75	0xbe9d1cdf	-0.3068609
76	0x3e6246cb	0.22097318
77	0xbdf385ca	-0.118907526
78	0xbdacf211	-0.08444608
79	0xbdd75fbc	-0.10516307
80	0xbea56f5f	-0.32311532
81	0xbe0bbe2d	-0.13646765
82	0xbe7e1fbf	-0.24816798
83	0x3c47b045	0.012188022
84	0xbdd6d5a2	-0.10489966
85	0xbd51824d	-0.051149655
86	0xbdc42ba7	-0.095786385
87	0xbe531b5c	-0.20615906
88	0xbe8b37ce	-0.27191013
89	0xbede02a8	-0.43361402
90	0xbee81ba8	-0.453336
91	0xbc7656bd	-0.015035328
92	0x3ca39107	0.019966615
93	0xbf1fbc82	-0.62397015
94	0xbda9319a	-0.08261414
95	0xbf2720bb	-0.6528432
96	0xbebed3df	-0.3727102
97	0xbeb55f61	-0.3542433
98	0xbe4d53d0	-0.20051503
99	0x3c8fad6c	0.017538749
100	0xbdd821f5	-0.10553352
101	0xbe8988cd	-0.26862183
102	0xbd14d749	-0.036338124
103	0xbd695a43	-0.056970846
104	0xbe885221	-0.2662516
105	0x3e081dfb	0.13292687
106	0x3e68104b	0.22662465
107	0xbdb2f2c1	-0.08737708
108	0xbdef0aa3	-0.11671951
109	0x3e805beb	0.25070128
110	0xbd50cc99	-0.05097637
111	0xbdf13d09	-0.1177922
112	0xbdbccacd	-0.09218369
113	0xbdad24b5	-0.08454267
114	0xbefbe49e	-0.4919786
115	0xbee03018	-0.43786693
116	0xbe98899b	-0.29792485
117	0xbe835f67	-0.25658724
118	0xbe2138ba	-0.15744296
119	0xbe609f20	-0.21935701
120	0xbe4a4ada	-0.19755116
121	0x3adbfb2a	0.0016783227
122	0xbe8706d0	-0.26372385
123	0x3c59eec1	0.013301552
124	0xbee50b0f	-0.44735
125	0xbe3b1dfa	-0.18273154
126	0x3db7699d	0.08955691
127	0xbd18098e	-0.037118487

a2c_network.actor_mlp.4.weight f4 [64, 128]
0	0x3ec773a9	0.3895543
1	0xbda325c2	-0.07966186
2	0x3e103cd1	0.140857
3	0x3d824532	0.06360854
4	0xbdbc0a26	-0.09181623
5	0xbdc49643	-0.09598973
6	0xbe2673f2	-0.16255167
7	0xbd555a7b	-0.052088242
8	0xbdb21557	-0.086954765
9	0x3c5e7502	0.0135777015
10	0xbe35fa45	-0.17771251
11	0x3ba91299	0.0051596877
12	0xbcdc5c8a	-0.026899595
13	0xbdf91f10	-0.12164128
14	0xbdefe297	-0.117131405
15	0x3cc89269	0.024483876
16	0x3c4fcadd	0.012682644
17	0xbc928c52	-0.017889176
18	0x3e068b24	0.13139015
19	0x3df422b6	0.11920683
20	0x3d620979	0.055184815
21	0xbdc80307	-0.097662024
22	0xbd692c57	-0.05692705
23	0x3d292247	0.041292455
24	0x3d21b98a	0.039483584
25	0x3e47aa0d	0.19498463
26	0x3d47ee6d	0.048811365
27	0xb951f1e9	-0.00020021912
28	0xbeb93806	-0.36175555
29	0xbc3ee8e7	-0.011652208
30	0x3e3f83f8	0.18702686
31	0xbe750a60	-0.23929739
32	0xbcf7b08c	-0.030235551
33	0xbdc6e16a	-0.09710963
34	0xbe3817f7	-0.17977892
35	0x3cd98e5c	0.02655714
36	0x3e86d8c8	0.26337266
37	0xbd277492	-0.040882654
38	0x3d91df44	0.07122663
39	0xbe36c7d4	-0.17849666
40	0x3dba1813	0.09086623
41	0xbcba9828	-0.022777632
42	0x3e0eb33f	0.13935564
43	0xbd8c8cdf	-0.068628065
44	0x3d6b898d	0.057504226
45	0xbeb5070e	-0.35356945
46	0x3de16dfd	0.11007307
47	0x3eb138f9	0.3461378
48	0x3d444524	0.0479175
49	0xbd27780a	-0.040885963
50	0xbdb2bec9	-0.08727796
51	0x3de0e538	0.1098122
52	0xbb73312f	-0.0037108173
53	0x3d9cccbc	0.076562375
54	0xbdfe8b34	-0.12428895
55	0x3cdfb61b	0.027308514
56	0xbd0c3e63	-0.034239184
57	0x3cc9bfe7	0.024627639
58	0xbe067ac8	-0.13132775
59	0x3c112b83	0.008860472
60	0x3e5230a6	0.2052637
61	0xbe35e0b5	-0.177615
62	0x3d4dfc00	0.050289154
63	0xbdc7b59a	-0.097514346
64	0xbdeb7db9	-0.11498589
65	0xbd6ed105	-0.058304805
66	0x3cc48217	0.023987813
67	0x3df86463	0.12128522
68	0xbddce261	-0.10785366
69	0x3d4213f8	0.047382325
70	0x3e00c32a	0.12574449
71	0x3e2fc7c0	0.17166042
72	0xbd835be4	-0.06414011
73	0xbdec507d	-0.115387894
74	0x3d8e9b8f	0.06963264
75	0x3d47de2f	0.048795875
76	0xbeec27d1	-0.46124128
77	0x3e30a548	0.1725055
78	0xbcec6943	-0.028858786
79	0x3e1e543e	0.15461823
80	0xbd87ba48	-0.06627327
81	0xbd98038b	-0.07422551
82	0xbdbb6d71	-0.09151734
83	0xbd6f56f8	-0.05843255
84	0x3cd9a4f8	0.026567921
85	0xbe280dad	-0.16411467
86	0x3d224b8e	0.039622836
87	0xbcab4179	-0.020905243
88	0x3b1fc658	0.0024379697
89	0x3d1f0f40	0.038832903
90	0xbda8ba05	-0.082386054
91	0xbcb4fd67	-0.022093488
92	0xbe349a84	-0.17637068
93	0x3ca11f2f	0.01966819
94	0xbe5531bd	-0.20819755
95	0xbe9871c3	-0.29774293
96	0x3c097113	0.008388775
97	0x3e3dccc2	0.1853514
98	0x3e426701	0.18984605
99	0xbe10f35f	-0.14155339
100	0xbc0b3a7d	-0.008497831
101	0xbc4ffd10	-0.012694612
102	0xbe6ef7d8	-0.23336732
103	0xbe0cd748	-0.13753998
104	0x3e5a2522	0.21303228
105	0x3c542473	0.012948143
106	0x3d0a409a	0.033753015
107	0xbe0f6c34	-0.1400612
108	0xbddf7d61	-0.10912586
109	0xbdf9d7fe	-0.121994
110	0x3c8d3170	0.017235488
111	0x3dd832d8	0.10556573
112	0x3d84e76d	0.064894535
113	0x3dad3990	0.08458245
114	0xbe3ec0a3	-0.18628173
115	0xbca905a2	-0.020632569
116	0x3e17a48c	0.14808863
117	0xbe5a1cd7	-0.21300064
118	0xbc35368e	-0.01106037
119	0xbd9fb9a4	-0.0779908
120	0xbe8780b3	-0.26465377
121	0xbcaabaf7	-0.020841105
122	0x3db1ea55	0.086872734
123	0xbe965971	-0.29365113
124	0x3dfc4ad1	0.123189576
125	0x3e00efec	0.12591523
126	0x3ca891cb	0.020577332
127	0xbd817d0a	-0.063226774
128	0x3cd48803	0.025943762
129	0xbea67379	-0.32509974
130	0x3d02814e	0.031861596
131	0x3dc4fa52	0.09618057
132	0xbe21607e	-0.15759465
133	0xba5c6844	-0.0008407871
134	0xbe404e9c	-0.18779987
135	0x3daf92d1	0.08572925
136	0xbe02bf7c	-0.12768358
137	0xbd4aa667	-0.0494751
138	0x3dd83f01	0.10558892
139	0x3e618cf6	0.22026429
140	0xbd097222	-0.03355611
141	0xbe56d051	-0.20977904
142	0x3c3d91f0	0.011570439
143	0xbcc18bf6	-0.023626309
144	0xbd8aee47	-0.06783729
145	0x3d3f311f	0.046677705
146	0xbc1bcd75	-0.009509434
147	0xbea5c41a	-0.32376176
148	0xbc87bbe8	-0.016569093
149	0x3e3100db	0.17285483
150	0x3de5bf37	0.11218112
151	0xbcb690e4	-0.022285886
152	0x3da7fbde	0.08202337
153	0x3e530305	0.2060662
154	0x3e3359b3	0.17514686
155	0x3c87be0d	0.016570115
156	0xbe13f1f0	-0.1444776
157	0x3e650267	0.22364198
158	0x3dacf179	0.08444495
159	0x3e002b98	0.1251663
160	0x3d42af95	0.04753073
161	0x3eb74c6c	0.35800493
162	0x3ca916f6	0.020640831
163	0x3d999f75	0.07501117
164	0xbd03445a	-0.032047607
165	0xbda0b8b6	-0.07847731
166	0xbd8372d2	-0.064183846
167	0x3e02bb0b	0.12766664
168	0xbe90f05d	-0.28308383
169	0xbe98406f	-0.2973666
170	0xbdb27067	-0.08712845
171	0xbe25abf4	-0.16178876
172	0x3dd75970	0.10515106
173	0xbd107d8c	-0.03527598
174	0xbc625188	-0.013813384
175	0x3e2b6fa4	0.16741806
176	0xbda24a96	-0.079243824
177	0x3dab49b6	0.083636686
178	0x3e3380c5	0.1752959
179	0xbc8a6bc4	-0.01689709
180	0x3e10a8ba	0.14126864
181	0x3e2bae15	0.16765626
182	0x3c9f497d	0.019444222
183	0xbcc0bd43	-0.023527747
184	0x3e5a1d1b	0.21300165
185	0x3e50ed00	0.20402908
186	0xbda0df06	-0.07855038
187	0xbb3e6cb2	-0.0029056487
188	0x3d253a59	0.040338848
189	0x3c3fef9b	0.011714841
190	0xbe916c9a	-0.2840317
191	0xbd999ce5	-0.075006284
192	0xbeaec5b6	-0.34135216
193	0xbe2c0396	-0.16798243
194	0x3da346d2	0.07972492
195	0xbabebf3d	-0.0014552843
196	0xbc39de68	-0.01134453
197	0x3e1fc2f9	0.1560172
198	0xbd0b3a47	-0.033991124
199	0x3e50062c	0.20314854
200	0x3d73c075	0.059509713
201	0xbbb88ca7	-0.0056320014
202	0x3e52b255	0.20575841
203	0x3e137885	0.14401443
204	0xbef73b4d	-0.4828743
205	0xbcc6bc84	-0.024259813
206	0x3db5c809	0.08876044
207	0xbe6aa925	-0.22916086
208	0xbdd9763f	-0.10618257
209	0x3e030de9	0.12798275
210	0xbc3219ef	-0.010870441
211	0xba03b833	-0.0005024701
212	0xbdc49b38	-0.09599918
213	0x3daf2b80	0.08553219
214	0x3d174233	0.036928367
215	0xbee74a78	-0.45174003
216	0xbb33987f	-0.0027404127
217	0xbd1db051	-0.038498227
218	0xbe05c6e4	-0.13064152
219	0xbc84610d	-0.016159559
220	0xbe127e45	-0.1430598
221	0x3db76eea	0.08956702
222	0x3d78fc7d	0.060787667
223	0x3e8f312f	0.27967212
224	0x3e05b020	0.13055468
225	0xbea805e6	-0.32817
226	0xbe097ec8	-0.1342727
227	0xbc953084	-0.01821161
228	0xbe7d3981	-0.24728967
229	0x3dcb14c0	0.09916067
230	0xbdf8f406	-0.12155919
231	0x3b4a8f2e	0.0030908096
232	0x3d6d30a7	0.057907727
233	0xbdf92a85	-0.12166313
234	0xb9cb030f	-0.00038721456
235	0xbc6d2ff1	-0.014476762
236	0x3d8fa39f	0.0701363
237	0xbf1418f4	-0.57850575
238	0xbd7640f1	-0.060120527
239	0xbc378006	-0.011199957
240	0x3d8ca42b	0.0686725
241	0xbcd34f00	-0.025794506
242	0x3d23b4ca	0.039967336
243	0x3e2ab221	0.16669513
244	0xbd6514ca	-0.05592803
245	0xbe2c5d70	-0.16832519
246	0xbd16686f	-0.03672069
247	0x3d8a6625	0.06757764
248	0xbe0c5009	-0.13702406
249	0xbcfe2ad6	-0.031026285
250	0x3c89a714	0.016803302
251	0x3c8a7182	0.016899828
252	0x3e23ae99	0.15984572
253	0x3dc338ba	0.09532304
254	0xbd7adf5d	-0.061248172
255	0x3de0b342	0.10971691

a2c_network.actor_mlp.4.bias f4 [64]
0	0xbe1253e5	-0.14289816
1	0xbe3f85a4	-0.18703324
2	0xbce9e918	-0.02855353
3	0xbe928858	-0.28619647
4	0xbe28babe	-0.16477486
5	0xbc535d4d	-0.012900663
6	0xbda6239c	-0.08112261
7	0xbd794df2	-0.06086535
8	0xbe98052e	-0.29691452
9	0x3ac530f4	0.0015044496
10	0x3c6c7309	0.014431723
11	0xbdd89b87	-0.105765395
12	0xbd70e557	-0.058812466
13	0xbe25d95d	-0.16196199
14	0x3df40424	0.11914852
15	0xbeb606f6	-0.35552186
16	0xbc82da86	-0.01597334
17	0xbe0f00a0	-0.13965082
18	0x3df1910c	0.117952436
19	0xbe83e175	-0.25757948
20	0xbd7cbff9	-0.061706517
21	0xbda0ddf1	-0.07854832
22	0xbd35a4e7	-0.044346716
23	0x3e05d61b	0.13069956
24	0x3e077e84	0.13231856
25	0xbcf69063	-0.030098146
26	0xbdcb5028	-0.09927398
27	0xbcbe4f3c	-0.023231141
28	0xbe7f7bcc	-0.24949569
29	0x3c26ab51	0.010172681
30	0xbe3c1afe	-0.18369672
31	0xbd8a1382	-0.06742002
32	0xbd74889d	-0.059700597
33	0xbe358e50	-0.17730069
34	0xbddc35cf	-0.10752451
35	0x3c6c778d	0.0144328
36	0xbd94e0e0	-0.07269454
37	0xbd99fef6	-0.07519333
38	0xbdefbebb	-0.11706301
39	0x3d83c8b2	0.06434764
40	0xbde781fe	-0.11304091
41	0xbcde015c	-0.027100258
42	0xbea55342	-0.32290083
43	0xbd6ac644	-0.057317987
44	0x3a9c8045	0.0011940083
45	0xbcb5dcbd	-0.022199983
46	0xbd1328d7	-0.03592762
47	0xbe8a9f09	-0.2707446
48	0x3c3e0588	0.011597998
49	0xbe5d0665	-0.2158447
50	0xbe4dfe45	-0.20116527
51	0xbddbf3f6	-0.10739891
52	0xbdf0f470	-0.11765373
53	0xbeabbae5	-0.33541027
54	0xbe6f2e69	-0.23357548
55	0xbe04ee02	-0.12981418
56	0xbcfb8d83	-0.030707126
57	0x3d571cf8	0.05251786
58	0xbe46372a	-0.19356981
59	0x3d30ed10	0.04319483
60	0xbd2ab851	-0.041679684
61	0x3ce7d158	0.028298065
62	0xbe0eb917	-0.13937794
63	0xbeb08614	-0.34477293

a2c_network.value.weight f4 [1, 64]
0	0x3b83450c	0.0040060338
1	0xbb8a1d43	-0.004214914
2	0x3eba8463	0.36429128
3	0xba18b8d7	-0.0005825883
4	0xbc578d81	-0.013156296
5	0xbd799109	-0.060929332
6	0xbce4252a	-0.027849752
7	0x3beb041a	0.00717212
8	0xbbc803a1	-0.006103948
9	0xbcea9bee	-0.028638806
10	0x3bc7f21c	0.0061018597
11	0xbc172f69	-0.009227612
12	0x3c1bf16e	0.009518011
13	0x3f12e464	0.57379746
14	0x3d1a2eee	0.037642412
15	0xbcf40873	-0.029789185
16	0xbd4974f9	-0.04918382
17	0xbe34dae4	-0.17661625
18	0x3cf01ecf	0.029311566
19	0xba953bba	-0.0011385598
20	0xbc711334	-0.014714051
21	0x3a9ce89e	0.0011971181
22	0x3d8b80ac	0.068116516
23	0x3c926653	0.017871058
24	0x3eb0e797	0.3455169
25	0x3e23677b	0.15957443
26	0x3e42c85e	0.19021747
27	0x3ceac2b0	0.028657287
28	0x3c261c1c	0.010138538
29	0x3a0dfc5c	0.00054163276
30	0xbc35b750	-0.011091068
31	0x3c8cc660	0.017184436
32	0xb6a8f3ac	-5.0351573e-06
33	0x3eaa9391	0.3331571
34	0xbc368a7c	-0.011141416
35	0x3d017674	0.031607106
36	0xbb592727	-0.003313491
37	0xbeb47d5c	-0.35251892
38	0xbcd0a8ae	-0.025471058
39	0xbc7c5346	-0.015400713
40	0xbcc02726	-0.023456167
41	0x3b4539c7	0.0030094252
42	0xbcb44dcc	-0.022009753
43	0x3ea3953b	0.3194979
44	0x3b1e735c	0.0024177646
45	0xbbff60a9	-0.007793505
46	0x3dbaa16b	0.09112819
47	0x3e8cd11b	0.27503285
48	0x39c65e67	0.00037835838
49	0xbcb2e3a9	-0.021837072
50	0xbe0ab507	-0.13545619
51	0x3de8b230	0.113621116
52	0x3a0e9903	0.00054396706
53	0xbd4fc5c9	-0.050725732
54	0xbb53c59a	-0.0032313825
55	0xbca1e520	-0.019762576
56	0xbb28ba9a	-0.0025745989
57	0xbaf06a93	-0.0018342308
58	0xbcf737c4	-0.030177958
59	0xbbf6af26	-0.0075282035
60	0x3e2021b9	0.15637864
61	0xbb32b45b	-0.0027268145
62	0xbc44ffaf	-0.01202385
63	0xbdc518fd	-0.09623907

a2c_network.mu.weight f4 [7, 64]
0	0x3d95cb0d	0.073141195
1	0xbdb495d9	-0.08817644
2	0x3c354e8f	0.011066093
3	0x3bc84230	0.006111406
4	0x3c963ce1	0.018339576
5	0x3d1c84f7	0.038212743
6	0xbcb38bd2	-0.021917257
7	0xbc18388a	-0.009290824
8	0xbc88cc0a	-0.016698856
9	0x3bc0c232	0.005882525
10	0x3c61645f	0.0137568405
11	0xb9d86749	-0.00041275684
12	0xbbfa2aef	-0.0076345126
13	0xbc0f6241	-0.008751453
14	0xbcd6fea3	-0.026244467
15	0x3ba93cb7	0.0051647085
16	0x3d03de74	0.03219457
17	0xbcd38fbd	-0.025825376
18	0xbcae4d97	-0.021277232
19	0x3d31309b	0.043259244
20	0xbbda73ce	-0.006666637
21	0xbce1c2b6	-0.027558666
22	0x3c6af4f9	0.014340633
23	0xbb6b5791	-0.0035910348
24	0x3c6686eb	0.014070253
25	0x3c99862b	0.018740734
26	0xbd479c0d	-0.048732806
27	0xbd1a0830	-0.037605464
28	0x3d5a0872	0.05323071
29	0x3b6e6305	0.0036374938
30	0xbdeef6a9	-0.116681404
31	0x3c905890	0.017620355
32	0x3d46737d	0.048449982
33	0xba17e4b3	-0.0005794272
34	0xbcec7b7c	-0.028867476
35	0xbbb4e97b	-0.005520997
36	0x3d13cdf6	0.03608509
37	0xbc844eac	-0.016150795
38	0xbb1a99d8	-0.0023590233
39	0xbc19c166	-0.009384489
40	0xbcfb8d95	-0.03070716
41	0xbc73548e	-0.014851702
42	0x3b4f4396	0.0031625978
43	0x3b805f05	0.003917577
44	0x3b0d0cc5	0.0021522504
45	0x3a0c9d0b	0.00053639774
46	0x3bfc3e76	0.0076978756
47	0x3d05bb16	0.032649122
48	0xb8d8b203	-0.0001033284
49	0x3d66783b	0.056267004
50	0xbc980a32	-0.018559549
51	0x3c164b8e	0.009173287
52	0xbd43496c	-0.047677442
53	0x3c6ca950	0.014444664
54	0xbbba3489	-0.005682532
55	0x3c3c8f6c	0.011508804
56	0x3da5b3ae	0.08090912
57	0x3ca10035	0.019653419
58	0xbc59f31d	-0.013302592
59	0x3bfdd9e2	0.007746921
60	0xbc2b080e	-0.010438932
61	0x3b747a93	0.0037304505
62	0xbb589dd7	-0.0033053064
63	0x3c817b03	0.015805727
64	0x3c3d8bf2	0.01156901
65	0xbd3dbd31	-0.046323005
66	0x3c2043b1	0.009781764
67	0x3d37a592	0.044835635
68	0xbcd8b3e5	-0.026452968
69	0x3cd73528	0.026270464
70	0x3c59c41c	0.013291385
71	0xbb867a75	-0.0041039535
72	0xbcd0d51c	-0.025492243
73	0xbc88f6c2	-0.016719226
74	0x3be623c1	0.007023305
75	0x3be1274d	0.00687114
76	0xbcfdd53e	-0.03098547
77	0xbbd51079	-0.006502208
78	0xbca50bb5	-0.020147184
79	0x3c772a34	0.015085746
80	0x3ccbbc8b	0.024870178
81	0x3abc58e9	0.0014369759
82	0xbb118561	-0.0022204744
83	0xbc954007	-0.018219007
84	0xbbb627c6	-0.0055589406
85	0x3ba4e463	0.0050321086
86	0xbbf9e591	-0.0076262434
87	0xbc7e2ce3	-0.0155136315
88	0x3ac7fff9	0.0015258781
89	0x3c4b94b8	0.012425594
90	0xbc0e35b3	-0.008679795
91	0xbaafb3d1	-0.001340503
92	0xbc2e44dc	-0.010636535
93	0xbb99eb15	-0.0046972134
94	0x3dcaab89	0.09895999
95	0xbbf7da37	-0.007563855
96	0x3ca7c855	0.020481268
97	0xbba6f12d	-0.0050946684
98	0xbb7db190	-0.0038710572
99	0xbb9f93f0	-0.0048699304
100	0x3c972a2b	0.018452724
101	0xbc94c1b8	-0.018158779
102	0x3b8a563b	0.0042217053
103	0xbc9d24a1	-0.019182505
104	0xbc10d12e	-0.008838935
105	0xbb7b916d	-0.003838624
106	0x3bd1e56c	0.006405523
107	0xbdb765df	-0.08954977
108	0xbca87140	-0.020561814
109	0xbcdd553c	-0.027018182
110	0xbbb1deb3	-0.005428159
111	0xbaabba37	-0.0013101761
112	0x3c4a0b5f	0.012331813
113	0x3d1d91fa	0.038469292
114	0x3acdf598	0.0015713451
115	0xbbba07bc	-0.0056771915
116	0x3d2a8ec5	0.041640062
117	0x3c958424	0.018251486
118	0x3c046fa0	0.008083254
119	0x3c2958ee	0.010336144
120	0xbc842f3e	-0.016135808
121	0xbb3c9f69	-0.002878154
122	0xbab26946	-0.0013611696
123	0xb9f81061	-0.0004731445
124	0x3bb3f626	0.0054919897
125	0xbb5f3b2b	-0.0034062366
126	0xbc81489c	-0.015781693
127	0xbb9bb139	-0.004751351
128	0xbcdd257d	-0.026995415
129	0x3cd5cba7	0.026098086
130	0xbc81d444	-0.015848286
131	0x3cafb555	0.02144877
132	0x3c01361f	0.007886439
133	0xbc4fb815	-0.012678166
134	0x3b85f4ae	0.004088006
135	0xbcbbc180	-0.022919416
136	0x3ba8c799	0.005150747
137	0x3b836879	0.004010257
138	0xbc36e3c8	-0.011162706
139	0x3e984154	0.2973734
140	0x3c792a7b	0.015207882
141	0xbb1d82fc	-0.0024034372
142	0x3c1e0fee	0.009647353
143	0xbdbff076	-0.09372036
144	0x3bda1e68	0.0066564567
145	0x3b4350c4	0.0029802779
146	0xbdbf89e5	-0.09352473
147	0x3e03902a	0.12847963
148	0x3c0fdcc4	0.008780662
149	0x3c016c7a	0.007899398
150	0x3c1c786b	0.009550194
151	0xbb630eaf	-0.0034646203
152	0xbc777073	-0.015102494
153	0x3a4c46f4	0.0007792555
154	0x3ca4e5da	0.020129133
155	0x3c6e925a	0.01456126
156	0x3d39904e	0.045303635
157	0xbda85656	-0.08219592
158	0xbd550557	-0.052007046
159	0x3c45a49c	0.012063172
160	0xbd38179b	-0.044944387
161	0x3bb5b5b2	0.0055453414
162	0x3b0ca02f	0.0021457782
163	0xbbd79348	-0.0065788366
164	0xbdd0ee1c	-0.10201666
165	0x3cd1e201	0.025620462
166	0xbb6fa3c4	-0.0036566118
167	0xbc5b120a	-0.013371
168	0x3d8783b9	0.06616921
169	0xbb5fc2a9	-0.0034143126
170	0x3d8266eb	0.06367286
171	0xbcdbc235	-0.026826004
172	0x3c0a61b2	0.008446144
173	0x3aac18a4	0.0013129902
174	0x39ae189e	0.00033206207
175	0x3b0267b7	0.0019898245
176	0xbe13e8d2	-0.14444283
177	0x3bcd543f	0.0062661464
178	0xbc939020	-0.01801306
179	0xbbaee835	-0.00533774
180	0xbc19c11c	-0.00938442
181	0xbcde5022	-0.02713782
182	0x3da345f8	0.0797233
183	0x3b189b08	0.0023285765
184	0x3c032a0b	0.008005629
185	0x3cf1f7a4	0.02953703
186	0x3bcd6fbb	0.006269423
187	0xbc49288a	-0.012277732
188	0x3b15a325	0.0022832837
189	0x3c364fe0	0.011127442
190	0xbd49b20a	-0.049242057
191	0xbd4befa8	-0.0497891
192	0xbc0407e2	-0.00805852
193	0x3c2e6246	0.010643547
194	0xbb9fd2e9	-0.0048774374
195	0xbcdeaa94	-0.027180947
196	0xbcd0426d	-0.0254223
197	0xbbe846fb	-0.0070885397
198	0x3c1e663f	0.009667932
199	0x3cc4e884	0.024036653
200	0x3d0b2431	0.03397006
201	0x3b501632	0.003175151
202	0xbbb3ecae	-0.005490861
203	0x3c370176	0.011169782
204	0xbca17a1d	-0.019711548
205	0xbc2015b5	-0.0097708
206	0xbc6571af	-0.014004155
207	0xbd66a288	-0.056307346
208	0x3cedcaa3	0.029027289
209	0xbc0322eb	-0.008003931
210	0x3c775390	0.015095606
211	0x3c0effb3	0.008727956
212	0xbc02df82	-0.007987859
213	0xbca34e81	-0.019934895
214	0x3bf1c0a4	0.007377701
215	0xbc9aae4d	-0.018881941
216	0xbc6ee1da	-0.014580214
217	0x3c9c585c	0.019085102
218	0xbc369c2f	-0.0111456355
219	0x3c662b9a	0.014048481
220	0xbd84ebb6	-0.06490271
221	0xbd54c900	-0.0519495
222	0x3c1b625b	0.009483899
223	0xbc47ef34	-0.012203027
224	0x3d451a7e	0.048120968
225	0x3bc7857c	0.0060889106
226	0x3d493d5d	0.049130786
227	0x3c636edc	0.013881411
228	0x3dd69aec	0.10478768
229	0xbb48ec00	-0.0030658245
230	0xbb405809	-0.0029349348
231	0xbb1a03b7	-0.002350075
232	0xbb8cd64c	-0.004298007
233	0xbcc16798	-0.023608968
234	0x3bc2ba14	0.0059425924
235	0x3b15b5e3	0.0022844009
236	0x3b59eae2	0.0033251573
237	0x3d4a9376	0.049457036
238	0xbc97867d	-0.018496746
239	0x3b87058c	0.0041205343
240	0x3afb6ec1	0.0019182788
241	0x3c9dbb8a	0.019254465
242	0xbca5f8dd	-0.020260269
243	0x3cb401cb	0.021973511
244	0xbd119f06	-0.035552047
245	0x3aac6532	0.0013152717
246	0x3dd5c799	0.10438461
247	0x3cec8bec	0.028875314
248	0xbc1ba505	-0.009499793
249	0x3aaeeee8	0.0013346346
250	0xbc28c3e3	-0.010300609
251	0x3ced749b	0.028986266
252	0x3b2149ed	0.0024610714
253	0xbd865d8b	-0.06560811
254	0xbc322303	-0.010872605
255	0xbd88596a	-0.066576794

a2c_network.mu.bias f4 [7]
0	0x3d179217	0.037004557
1	0xbc59e0fc	-0.013298269
2	0xbd6f7cd0	-0.05846864
3	0x3cda5c23	0.026655262
4	0x3e1ea470	0.15492415
5	0xbd77e1c8	-0.060518056
6	0xbda5c492	-0.080941334

exp_avg f4 [7]
0	0x3a1a1ebc	0.00058792136
1	0xb88e5720	-6.787316e-05
2	0xb7b58643	-2.1639402e-05
3	0xb8e73cb5	-0.00011026246
4	0xb98da014	-0.00027012883
5	0xb9769810	-0.00023517036
6	0x3a354a56	0.0006915679

exp_avg_sq f4 [7]
0	0x35f5ee2e	1.8323242e-06
1	0x35f638f2	1.8345002e-06
2	0x35e3181c	1.6919835e-06
3	0x35f40a73	1.8182458e-06
4	0x35d97670	1.620223e-06
5	0x35d97ab4	1.6203471e-06
6	0x35f2efb0	1.8100163e-06

exp_avg f4 [256, 16]
0	0x00000000	0.0
1	0xb912f505	-0.00014014922
2	0x39877db1	0.00025842854
3	0x3a3eec5a	0.0007283144
4	0x38ae98e0	8.325442e-05
5	0xb95a7839	-0.00020834887
6	0x395207a0	0.00020030001
7	0xb98c0e77	-0.00026713658
8	0xb93b9fcc	-0.00017893239
9	0x39901006	0.0002747776
10	0xb806fb07	-3.2181877e-05
11	0xba69bfe2	-0.00089168374
12	0x3a033883	0.00050056743
13	0xb95a1f27	-0.00020801705
14	0xb88ada46	-6.6210094e-05
15	0x3933bbe2	0.00017140762
16	0x00000000	0.0
17	0xb9877d8a	-0.0002584274
18	0xb8d978ea	-0.00010369888
19	0xb95b8242	-0.00020933992
20	0xb86e0a82	-5.6753408e-05
21	0xba18bacf	-0.00058261765
22	0x39d24bcf	0.00040110803
23	0xb6bd078a	-5.6335166e-06
24	0xba1f9912	-0.0006088178
25	0x39a58eed	0.0003157774
26	0x3956d99c	0.00020489696
27	0x38f6990e	0.00011758703
28	0xb93c1310	-0.00017936178
29	0x38498190	4.80428e-05
30	0xb831088c	-4.220805e-05
31	0x39d33861	0.00040287062
32	0x00000000	0.0
33	0xba777496	-0.0009439675
34	0x3a1e64ad	0.00060422235
35	0x3a3d5608	0.00072225975
36	0xb99f11dd	-0.00030340152
37	0x3a275474	0.0006383129
38	0x38a7cd45	8.001415e-05
39	0x38ca79ff	9.654834e-05
40	0x3a4db4a9	0.000784705
41	0x394042ce	0.00018335434
42	0x38d0027f	9.918678e-05
43	0xba4c33f4	-0.0007789724
44	0x3a2f357a	0.0006683689
45	0xb98a1ce7	-0.00026342945
46	0xb9674906	-0.0002205708
47	0xb9367097	-0.00017398816
48	0x00000000	0.0
49	0xbb756aa0	-0.0037447587
50	0x3ab6a742	0.0013935345
51	0x3a4d66f8	0.0007835473
52	0x3a554043	0.0008134881
53	0x3b26cc07	0.00254512
54	0x3a5f8f28	0.0008528107
55	0x3976340b	0.00023479776
56	0x3b3e44a6	0.0029032617
57	0x3aa1ed6a	0.001235408
58	0x375c67c0	1.3137178e-05
59	0x38d7de8f	0.00010293454
60	0x3a61d2bf	0.00086144725
61	0x398ad917	0.00026483156
62	0xba0177da	-0.0004938819
63	0xba29f8c7	-0.0006483909
64	0x00000000	0.0
65	0xba113653	-0.0005539406
66	0x39bb03f9	0.0003567038
67	0x3a151238	0.0005686614
68	0xb86b7543	-5.6137575e-05
69	0x3a17eb5d	0.0005795265
70	0x39c0cc0e	0.00036773126
71	0x3977b1c6	0.00023621981
72	0x3a12a1c4	0.0005593563
73	0x39862534	0.0002558619
74	0x39027796	0.00012442315
75	0x3872d322	5.789393e-05
76	0x39af1fd4	0.00033402315
77	0xb87b6521	-5.9937247e-05
78	0xb96ad338	-0.00022394664
79	0xba102912	-0.0005499284
80	0x00000000	0.0
81	0xba2db295	-0.0006626037
82	0x39b150da	0.0003382031
83	0xb92a9e4b	-0.00016271432
84	0x392aef2a	0.00016301559
85	0x39fccfb7	0.00048219945
86	0x3a222834	0.00061858003
87	0x3a5937b5	0.0008286194
88	0x39c83966	0.00038189738
89	0x39eba73a	0.00044947286
90	0x3a487791	0.00076472113
91	0x3a89cc85	0.0010513222
92	0xb9371f31	-0.0001746386
93	0xb8998c98	-7.321796e-05
94	0xb9624e17	-0.0002158213
95	0xb9b3e1ec	-0.00034309865
96	0x00000000	0.0
97	0xba8f44dc	-0.0010930556
98	0x38945f41	7.0749324e-05
99	0x39cf3029	0.00039518
100	0x389fa9fa	7.6133714e-05
101	0xb8f7b915	-0.00011812352
102	0x393f33fb	0.00018234544
103	0x3a761a9f	0.0009388122
104	0xb3cceb14	-9.542251e-08
105	0x39005d5d	0.00012241812
106	0x3a87ff54	0.0010375776
107	0x3a0e5b0c	0.0005430437
108	0x3a3b93ed	0.00071555265
109	0x39206e1a	0.00015299805
110	0xb98b22ca	-0.00026538066
111	0xb9a2c7aa	-0.0003104781
112	0x00000000	0.0
113	0xb970d4b7	-0.00022967426
114	0x3a26aac9	0.00063578464
115	0x3a5feafe	0.00085417915
116	0xb78163e9	-1.5424523e-05
117	0x38d12cbb	9.974228e-05
118	0x3a0f2243	0.00054601225
119	0x3970df74	0.00022971426
120	0x3833996a	4.2819804e-05
121	0x3a16f33d	0.0005758291
122	0x39ba13de	0.00035491487
123	0xb9f21d19	-0.00046179516
124	0x39db9b50	0.00041886652
125	0xb9302b81	-0.00016800874
126	0xb91b3cc6	-0.00014804592
127	0xb76baf7d	-1.4047951e-05
128	0x00000000	0.0
129	0xbac2058d	-0.001480268
130	0x3a522475	0.0008016297
131	0x3a33d48e	0.0006859981
132	0xb79389cc	-1.7587932e-05
133	0x3a9e2f8d	0.0012068615
134	0x3a1b6dac	0.0005929123
135	0x39c1fe61	0.00037001356
136	0x3ab5f2b5	0.0013881536
137	0x3a4867a8	0.00076448405
138	0x39876763	0.00025826236
139	0xb9d36d71	-0.00040326596
140	0x3a3ace9d	0.00071261247
141	0x3969504d	0.00022250526
142	0xb98c06c3	-0.0002670792
143	0xb9f13047	-0.00046003071
144	0x00000000	0.0
145	0xba86271e	-0.0010235047
146	0xb94d8736	-0.00019600693
147	0x3989bfd7	0.00026273608
148	0x39985347	0.00029053746
149	0xb92ee5c8	-0.00016679533
150	0x38e788f2	0.000110404464
151	0xb9266e10	-0.00015871995
152	0xb7f5ccb5	-2.93016e-05
153	0x3982f72f	0.00024979698
154	0x38ffdef1	0.000122008736
155	0xb961a20a	-0.00021518036
156	0x392be1bb	0.00016391922
157	0x39ee3448	0.0004543385
158	0xb6131ee5	-2.192269e-06
159	0x39a9b926	0.00032372138
160	0x00000000	0.0
161	0x386162c0	5.373615e-05
162	0xb89ae595	-7.386055e-05
163	0x38be1b5a	9.0650006e-05
164	0xb90da932	-0.00013509838
165	0xb9009928	-0.00012264086
166	0x39127e07	0.00013970594
167	0x3994cb44	0.00028380204
168	0xb94daea9	-0.0001961539
169	0xb7c0518f	-2.2926162e-05
170	0x392ea388	0.00016654853
171	0x398f5fea	0.00027346547
172	0x3860621b	5.349713e-05
173	0xb8816d3e	-6.171547e-05
174	0xb82b336f	-4.081748e-05
175	0xb9e4d6a2	-0.00043647463
176	0x00000000	0.0
177	0xba5b259e	-0.00083597924
178	0xb85db7c3	-5.2861647e-05
179	0x3a9b1b7e	0.0011833755
180	0x380a0c2b	3.2913096e-05
181	0xb9e6d3ab	-0.00044026723
182	0xb99a5b46	-0.00029441173
183	0xba05598c	-0.0005086891
184	0xb9c635de	-0.00037805637
185	0xb92f84bd	-0.0001673875
186	0xb901ffcf	-0.00012397695
187	0xba90b875	-0.0011041301
188	0x39d7e524	0.0004117872
189	0x38841f6b	6.3001025e-05
190	0xb8b75c1f	-8.743279e-05
191	0x3a28f60d	0.0006445356
192	0x00000000	0.0
193	0xb9f3a719	-0.0004647307
194	0xb9c93558	-0.00038377452
195	0xb9096d9e	-0.00013106174
196	0x3a032c3f	0.00050038466
197	0x39483e86	0.00019096778
198	0x3a0b0436	0.00053030567
199	0xb9d89704	-0.00041311246
200	0x39565049	0.00020438539
201	0x3a0963b0	0.000524099
202	0xb99906c4	-0.00029187475
203	0xb995a4de	-0.0002854233
204	0x38b9cb9b	8.859412e-05
205	0x390e1ade	0.00013552184
206	0x3917c3e1	0.00014473453
207	0x38b366c6	8.554528e-05
208	0x00000000	0.0
209	0x3aba6b90	0.001422273
210	0xba1c4942	-0.0005961844
211	0xb9b6dee8	-0.00034879823
212	0xba099fa3	-0.0005249923
213	0xba46d9f5	-0.0007585579
214	0xba7b5009	-0.00095868163
215	0x37f88a75	2.9628378e-05
216	0xba63b6b8	-0.000868659
217	0xba8db6d4	-0.0010811933
218	0x37c1ad29	2.3088027e-05
219	0x391cb8e4	0.00014946196
220	0xb9a6a7f7	-0.0003178713
221	0x38959e2a	7.134334e-05
222	0x38daf3ae	0.00010440439
223	0xb902ecae	-0.00012485936
224	0x00000000	0.0
225	0x3afbc3c6	0.0019208125
226	0xba8519a4	-0.0010154736
227	0xba11e1d3	-0.00055649615
228	0xba016af7	-0.00049368985
229	0xba8b347b	-0.0010620499
230	0xb9b908fa	-0.00035292638
231	0x3a26a97b	0.0006357652
232	0xbaa25487	-0.001238481
233	0xba318dd3	-0.00067731476
234	0x398ba299	0.0002663329
235	0x3a5783a2	0.0008221214
236	0xb993fff4	-0.00028228725
237	0x39c4b0c2	0.00037515728
238	0x39258b51	0.00015787526
239	0xba9acc52	-0.001181016
240	0x00000000	0.0
241	0xba2513f4	-0.0006297224
242	0x3967719b	0.00022072198
243	0x3a88cfdf	0.0010437927
244	0xba18b205	-0.0005824867
245	0x3a86bcb4	0.0010279627
246	0x39b84c3f	0.00035152023
247	0x3992f512	0.00028029882
248	0x3a78f8ad	0.0009497505
249	0x391daa03	0.00015036021
250	0x39dce29e	0.00042130513
251	0xb89f7151	-7.602818e-05
252	0x39a3dfcb	0.00031256521
253	0xb9d8b112	-0.00041330658
254	0xb9c0800c	-0.00036716496
255	0xb9b37a07	-0.00034232458
