Soft Gripper Grasping Objects Project/Pretrained/soft_gripper_pretrained/nn/SoftGripper.pth (torch, 522103 bytes, 36 tensors)

value_mean_std.running_mean f8 [1]
000000 ab fe 2b b2 56 95 83 40
       626.6673320233434

value_mean_std.running_var f8 [1]
000000 f8 7e 59 7a bb 71 e3 40
       39821.85868525313

value_mean_std.count f8 []
000000 00 00 20 00 80 e9 e1 41
       2404122625.0

running_mean_std.running_mean f8 [16]
000000 00 00 00 00 00 00 00 00 00 7c f8 87 e1 48 c4 3f
       0.0 0.15847415103141316
000010 ae 5a be 75 11 6c 28 3f 71 1a 72 ff 5b 93 b0 bf
       0.00018632615217191922 -0.06474852549045253
000020 63 cd dd 90 ba 89 e2 3f 0f 49 79 eb 8f 16 a7 3f
       0.5793125943586513 0.04509401082454378
000030 d7 09 5b 4c 24 e7 91 bf af 6f 4f ae 96 50 f6 3f
       -0.017483298454644327 1.3946749505039227
000040 a3 f9 ee d9 d3 9e 9c 3f 21 2a 4a 94 01 6c a5 bf
       0.027949628998379727 -0.04183964667489116
000050 c0 21 ce 18 f8 26 fb 3f 69 9c f9 36 2a 16 8b 3f
       1.697013947387049 0.013225869944291273
000060 3a af 45 3c e7 47 7b 3f 04 18 26 ed c9 62 a2 bf
       0.006660369170599806 -0.03590994853861676
000070 da 26 f5 f1 34 d9 ef 3f 30 3c 02 c8 f9 d8 b8 bf
       0.9952645040259214 -0.09706078656221062

running_mean_std.running_var f8 [16]
000000 d3 51 8a fe 81 95 0c 3e b8 b6 f5 fe 52 60 c4 3f
       8.319043206741883e-10 0.15918958138666084
000010 93 18 f1 08 68 2d c2 3f 48 45 09 3d de 1b c0 3f
       0.14201069294557964 0.12585046749385698
000020 8c bc de 3f 70 a3 ca 3f a1 fc d2 20 dd 8c 94 3f
       0.20811274641662114 0.02006860268442934
000030 6c ac 18 90 4a b5 97 3f 1c da 07 3c 0b 3a b2 3f
       0.02315250877851975 0.07119817939369749
000040 cf 20 c2 7b f5 36 95 3f ed 05 23 84 6b 95 9a 3f
       0.020717464140518168 0.02596061700820045
000050 72 29 1a 3b f8 8d b1 3f e5 c3 37 2a 2c df 60 3f
       0.06857253497051888 0.0020595419498410255
000060 a3 2b 3d 5e 67 dd 5f 3f 87 da 59 77 d4 3a 6f 3f
       0.001944876618795923 0.003812231991840168
000070 71 00 de 7a 9d 95 1f 3f c5 ce 9f 27 70 54 5a 3f
       0.00012048505479178726 0.0016070456754250656

running_mean_std.count f8 []
000000 00 00 40 00 80 e9 d1 41
       1202061313.0

a2c_network.sigma f4 [7]
000000 78 8f 57 c0 1c 9a 6d c0 5a c0 52 c0 c2 65 56 c0
       -3.3681316 -3.712531 -3.2929902 -3.3499608
000010 38 e4 40 c0 04 b2 22 c0 93 54 1e c0
       -3.0139294 -2.5421152 -2.473912

a2c_network.actor_mlp.0.weight f4 [256, 16]
000000 c6 58 45 3e 33 93 d3 3d 4d b5 aa bd 0b 8e 42 bd
       0.19272146 0.103308104 -0.08335362 -0.047498744
000010 0d 2c fe 3b 32 ab 45 3e d9 77 d9 ba 85 66 0b 3f
       0.007756716 0.19303587 -0.0016591504 0.5445331
000020 bc 6d d3 be 5c 06 99 bd b9 18 d5 be 76 eb d2 be
       -0.41294658 -0.07471916 -0.41620424 -0.41195267
000030 6d 46 3a 3d 06 da a8 be 1b 7c b3 3e e5 b6 ed bd
       0.04547732 -0.3297884 0.35055622 -0.1160715
000040 96 a3 45 3e 1d 2a b5 3b 01 b7 94 3c c3 9f ad 3c
       0.19300684 0.005528702 0.01815367 0.021194344
000050 db cd 19 bd 6a 4b 8f bd ec b2 23 3c 22 4b 84 bf
       -0.037549835 -0.06996806 0.009991389 -1.0335429
000060 e7 fa 62 3d 75 74 0d 3c ca 85 37 3f e4 f2 67 3d
       0.05541506 0.008633723 0.7168852 0.056628123
000070 6f 26 24 3e d7 36 d7 bd c0 d1 f3 3b 7e 46 3e bd
       0.16030286 -0.10508507 0.0074407756 -0.046453945
000080 7a 01 02 3e 58 9b 9e 3d 71 ab cc bd 4d 3c 15 3c
       0.12695876 0.07744473 -0.09993637 0.009108615
000090 f2 09 ab 3c 83 2e bc 3e 9a ae 9b 3e 01 9d c4 3e
       0.020878766 0.36754236 0.30406648 0.38401034
0000a0 7a ba e1 be f4 c5 83 be cc ae 03 3c e9 80 f6 be
       -0.44087583 -0.25736964 0.00803728 -0.48145226
0000b0 94 f3 49 be 66 35 16 bd d9 89 8f bc 91 9f 4e 3d
       -0.19721824 -0.03667202 -0.017521786 0.050445143
0000c0 98 e2 9c 3d 13 b5 be bc 5b c6 08 3d 87 a6 a1 bc
       0.07660407 -0.023279702 0.03339229 -0.019732727
0000d0 42 05 ef bd 09 d9 3b bf cd 40 31 3f 3b 9c d1 3e
       -0.11670925 -0.73378044 0.69239503 0.40939507
0000e0 45 50 3d 3f b4 54 3d bf 46 3d a8 be a9 89 1f bb
       0.73950607 -0.7395737 -0.32859248 -0.0024343526
0000f0 23 d6 f4 bd 49 1f 0b 3e 56 a2 bb be 01 4a 25 3d
       -0.11954906 0.13586153 -0.3664729 0.04035378
000100 74 34 04 be d8 79 54 bd 23 46 8a be 07 df 83 3c
       -0.12910634 -0.05187401 -0.27006635 0.016097559
000110 c6 a7 49 3e 21 0a 7a bc 8f 95 e2 3e 66 66 1d be
       0.19692907 -0.015261204 0.4425473 -0.15371093
000120 5d 7f 97 be 8a 61 06 be c7 2f a2 3d c8 7d 8a be
       -0.29589358 -0.13123146 0.07919269 -0.27049088
000130 28 a9 71 bd 48 8e 33 3e 1c 15 f1 be ec 4c 75 be
       -0.05899921 0.17534745 -0.47086418 -0.23955125
000140 d2 68 6a 3e 84 a4 ee bd 5d de 27 bb 2c fa ca bb
       0.22891548 -0.116524726 -0.0025614717 -0.0061943736
000150 53 59 4b bd ed 0d b9 3d 68 f5 1c 3b a2 a7 a1 bf
       -0.049645733 0.09035859 0.0023949984 -1.2629282
000160 24 7d 09 3e 1e da 2e be 82 e0 92 be 1a 73 49 be
       0.13426644 -0.17075393 -0.2868691 -0.19672814
000170 27 58 73 be f0 ff 8e 3d e2 ca 3d be 6d 9e e4 3d
       -0.23764096 0.0698241 -0.18534425 0.1116303
000180 1c c7 9d 3d 08 42 ec 3c 6a bb 5a be 24 0c a6 3d
       0.07703993 0.02884008 -0.21360555 0.081077844
000190 27 4c 7d bb cc 8e cf bd c5 91 77 3e 4a 16 17 3e
       -0.0038650127 -0.10134658 0.241767 0.14754596
0001a0 5a c2 97 3e 66 b0 14 be 2f 6b 87 be 98 b5 36 be
       0.29640466 -0.14520416 -0.26448962 -0.1784271
0001b0 27 a4 00 bf 68 7e e6 3d d3 c1 15 bf cd 7e bc be
       -0.50250477 0.11254579 -0.5849888 -0.3681549
0001c0 f6 a5 56 3e 44 18 38 be 72 7a d5 3d db fb 86 3e
       0.20961747 -0.17978007 0.10423745 0.26364025
0001d0 56 c7 60 be b7 23 f2 3e d6 f4 8d 3e 2a 6f cf be
       -0.2195104 0.47292873 0.27725857 -0.405145
0001e0 09 2b 15 bf 58 76 91 be dc 01 cb 3d 58 76 85 3c
       -0.5826879 -0.28410602 0.09912464 0.016291782
0001f0 cc 7f 48 3e fb ee ab be 84 11 18 bc 47 ca f0 be
       0.1958 -0.33580765 -0.00928152 -0.47029325
000200 48 d1 30 bd 3a 8a 2a 3d ad 5c d3 3d d2 60 96 bb
       -0.043168336 0.04163573 0.10320411 -0.0045891786
000210 0a a0 1d bd 13 84 c1 be 1d 4a 0e 3f 50 b6 52 bd
       -0.038482703 -0.37796077 0.5558184 -0.051443398
000220 db 54 88 3e d8 b0 1d bf 28 13 37 3e c6 da 88 be
       0.2662724 -0.6159797 0.17878401 -0.2672941
000230 31 ac 0a 3e 9b 6f b3 3d 32 64 29 bd c0 02 67 be
       0.13542248 0.087615214 -0.04135532 -0.22559643
000240 0c b1 68 3e fc df 81 3d a7 46 23 3d f5 f6 fd 3c
       0.22723788 0.0634155 0.0398623 0.031001547
000250 c0 57 db bb 49 03 81 be 40 f7 a4 3e ed 0b 09 3e
       -0.00669381 -0.2519782 0.32219887 0.13383456
000260 9a fb 9d 3e ad 9e ba be fc fd 1a be 29 c6 7a bd
       0.3085602 -0.36449185 -0.1513595 -0.061224137
000270 19 5c 1c be f0 d1 36 3e 80 5b 28 bf da e9 32 be
       -0.15269507 0.17853522 -0.6576462 -0.1747202
000280 4c 40 3f be f4 65 a0 3d 5c 39 ca 3d 3a 97 18 be
       -0.18676871 0.07831946 0.09874222 -0.14901438
000290 bd a1 5f bd f3 74 bc 3c 72 9d dc bd 0e fa 98 be
       -0.054597605 0.023004984 -0.10772218 -0.29878277
0002a0 d3 ef 5f 3d dc d6 5d 3e e9 ee d2 3e 71 93 49 bc
       0.054672074 0.21663994 0.411979 -0.012303219
0002b0 23 c0 79 be b5 2c ce 3d 16 44 9a be 4f f1 46 be
       -0.243897 0.10067121 -0.3013007 -0.1942799
0002c0 10 a3 23 3e d1 f1 20 3b ba 4e 00 bc fa 3b b8 bc
       0.15980172 0.0024558196 -0.00783127 -0.022489537
0002d0 5c a6 29 3d 7f e0 f1 3e 40 26 a0 3e be 9f 1a bd
       0.04141842 0.4724159 0.31279182 -0.03775
0002e0 aa 36 1a bf d5 a7 81 be a7 00 d7 3d 7f f4 0e bd
       -0.6023966 -0.25323358 0.10498171 -0.03490114
0002f0 68 2d 35 3d b5 fa 37 be 3e be d7 be 64 c7 6e be
       0.044232756 -0.17966731 -0.4213733 -0.23318249
000300 8c e4 a6 bd a2 51 0e bd ce ad 84 3e 30 ca 13 be
       -0.081490606 -0.03474582 0.25913852 -0.14432597
000310 2d 80 b5 be 47 b9 af bd e0 d1 06 3d b5 d4 08 3f
       -0.35449353 -0.08580261 0.032914996 0.53449565
000320 4f 70 5d 3e 8b 79 b8 bb 9e 11 b0 bd f2 39 5c be
       0.21624874 -0.0056297234 -0.0859711 -0.2150648
000330 28 2c dd be 32 f9 81 3e 2f 19 28 3d 1b 77 cc bc
       -0.4319775 0.25385433 0.041039642 -0.024959138
000340 7e ab 7e be 97 a9 52 3c b8 81 1d 3e 3b 23 cc 3d
       -0.24870107 0.012857816 0.15381515 0.09967657
000350 b0 82 94 bd d1 fd ed be f1 41 d6 be 22 fd c9 3e
       -0.07251489 -0.4648271 -0.41847184 0.39450938
000360 23 84 99 3e 54 b4 fb 3e e3 5c a5 3c a6 dd b0 3d
       0.29983625 0.49161017 0.020185893 0.08636026
000370 1c 75 01 be 06 de b1 be 62 6e b2 bd 03 b7 22 be
       -0.1264233 -0.34739703 -0.0871246 -0.15890126
000380 e4 97 d1 3d 1b 8e d5 3c c2 9f d2 bc c6 aa 99 bd
       0.10234049 0.026068738 -0.025710944 -0.075032756
000390 81 b2 ef bd 9a 0b ef be c0 f5 04 bf a4 0e 89 3e
       -0.11703969 -0.4668854 -0.51937485 0.26768982
0003a0 72 ed 02 3f dc 28 0b 3f ff d6 87 be ac ac d8 3d
       0.5114356 0.5435922 -0.26531217 0.105798095
0003b0 4f 84 31 be 06 18 d8 bd 6a 07 c1 be 1d 9b 60 be
       -0.17335628 -0.10551457 -0.3770097 -0.21934171
0003c0 cc 3a 0f 3e 96 e6 34 bb 07 60 16 be db b1 e3 bd
       0.13987273 -0.002760326 -0.14685069 -0.111179076
0003d0 98 6f 41 3e bb 5f 51 bf 33 39 39 3f af 4c 84 3c
       0.18890226 -0.817867 0.72352904 0.016149847
0003e0 84 9d 4e be 8f d9 77 3e f5 b8 18 3e b7 e1 06 be
       -0.20177275 0.24204086 0.14914306 -0.13172041
0003f0 b6 18 b6 bd d0 e8 3c be 6d 3f a5 be 15 12 52 be
       -0.08891432 -0.18448186 -0.32274953 -0.2051471

a2c_network.actor_mlp.0.bias f4 [256]
000000 52 66 d9 3b c8 5f c1 3d 6e 35 ea 3b 3d 70 f8 bc
       0.006634512 0.09442097 0.0071474826 -0.030326957
000010 be b2 b3 be a8 84 ca be d9 c5 f5 bd b1 dd 1f be
       -0.35097307 -0.39554334 -0.12000627 -0.15611912
000020 5d e1 f9 bd a2 16 ca 3e 36 65 eb bd 11 2f ea 3e
       -0.12201188 0.39470392 -0.11493914 0.45739034
000030 30 cb 9a 3e d9 f8 90 3e c4 1b 84 bb 76 4b fe be
       0.30233145 0.28314856 -0.0040316302 -0.49666947
000040 2e 8d d6 3e 15 c8 08 bf 26 8f 04 3f f3 e4 fe be
       0.41904587 -0.534303 0.5178093 -0.4978405
000050 3a 24 52 be 6a 43 61 3e ec d9 60 3e a5 1e c8 bb
       -0.20521632 0.21998373 0.2195813 -0.0061071687
000060 6a 01 b9 3d 31 f7 b3 3e 66 bf 4d 3e 13 b9 cb 3e
       0.09033473 0.3514953 0.20092544 0.39789638
000070 7a e3 88 3e 47 ae 5c be 07 62 95 3d 9d 5f e0 3e
       0.2673605 -0.21550857 0.07294088 0.43822947
000080 a2 8a 3c be ac 1e 12 3e 64 cf 24 be a9 84 87 3e
       -0.18412259 0.14269513 -0.16094738 0.264684
000090 37 f1 bf 3e f8 84 d9 3c 30 8b 04 be 0b 33 e6 bc
       0.3748872 0.026552662 -0.12943721 -0.028100511
0000a0 b1 82 af 3e 6d 88 de bd f1 d1 9c 3e 04 27 8c 3e
       0.34279397 -0.10865865 0.30628923 0.27373517
0000b0 cd 5d 78 be f0 94 83 3e 43 7e 49 3e b0 29 84 be
       -0.24254532 0.25699568 0.19677071 -0.25813055
0000c0 9d 1b 16 3c dc 92 57 3e ff c6 93 bd 20 bf ba 3c
       0.009161857 0.21052116 -0.0721569 0.022796214
0000d0 c3 49 b9 3e 1a 13 98 3d 9f 5c ac be b0 ea ff 3c
       0.36189088 0.07425518 -0.33664414 0.031239837
0000e0 9a b9 68 be 0f d3 fb ba c4 c0 91 bd f6 20 d2 bd
       -0.22727051 -0.0019212681 -0.07116845 -0.10260193
0000f0 6b 58 50 3e 51 ef 0c 3e 46 3b c7 3e 29 de 37 bd
       0.20346229 0.13763167 0.3891241 -0.044889603
000100 09 a6 33 be 71 3e 65 3e 92 d8 eb be bc e3 ab bd
       -0.17543806 0.22387101 -0.46063668 -0.08393046
000110 54 96 88 be 73 bd 5f 3e e2 75 2f be 4a a6 6c 3e
       -0.2667719 0.21849613 -0.17134812 0.23110309
000120 05 c3 85 3e e6 9c be 3d 42 3c 61 be ab 15 29 bd
       0.2612535 0.0930727 -0.21995643 -0.04128043
000130 c4 5b dc 3e 9e 63 97 3e 4c ac c4 bb 8a ad 4a be
       0.43038762 0.2956819 -0.0060019847 -0.19792762
000140 cb 28 5d 3e 9e 9c d4 3d 15 09 61 3f 6b d5 a3 3e
       0.21597593 0.10381435 0.87904483 0.31998762
000150 c3 c0 5c bd ea cd 49 3e 4e 0d c1 be 2b d5 91 be
       -0.05389477 0.19707456 -0.37705463 -0.28482947
000160 28 1c 47 bd a7 7f d4 3e 30 43 56 3e a9 04 4e be
       -0.048610836 0.4150364 0.20924067 -0.20118965
000170 84 58 a0 3e 2c b7 92 3e 79 ca fd 3e 14 65 70 3e
       0.31317532 0.28655374 0.49568537 0.23476058
000180 f2 cd 80 3c 0f aa b2 3e a3 b9 06 3f bb 2d a9 3e
       0.015723202 0.3489537 0.5262701 0.33042702
000190 36 d2 00 3e 21 44 f9 be bd e2 f1 be 68 0e 86 3e
       0.12580189 -0.4868479 -0.472433 0.26182866
0001a0 6a 9f 18 bd 87 52 52 3e d0 e5 f4 be f4 6f fc 3d
       -0.037261404 0.20539294 -0.47831583 0.12326041
0001b0 b0 12 c2 3d 72 6a 73 3e de 0e 8b 3d e1 6a 06 3f
       0.094762206 0.23771074 0.06789945 0.52506834
0001c0 a9 fe 4b 3e 96 42 e7 3d bc 73 90 3d c6 b5 0c 3e
       0.19921364 0.11291997 0.070533246 0.13741216
0001d0 f7 dd cb 3e 43 fb 9f bd fa b0 ca be dd 5d 95 bc
       0.39817783 -0.07811596 -0.39588147 -0.018233234
0001e0 59 99 c1 bc c0 6d c3 3e 5d ea e3 be 84 85 9f 3d
       -0.023632692 0.3816967 -0.44514742 0.07789138
0001f0 7b e8 91 3e 21 a1 d3 be 8f 05 40 3e ef d1 31 be
       0.2849768 -0.4133387 0.1875212 -0.1736524
000200 86 1d c5 3d 75 73 85 be 14 80 8c bd 6e 33 35 3a
       0.09624772 -0.2606465 -0.068603665 0.00069122657
000210 51 90 49 3e 02 49 b2 3e 08 1c dc bc 98 c4 ad be
       0.19683959 0.34821326 -0.026868835 -0.33939052
000220 ca 51 f8 3d 9a cd 34 3e a3 b7 1e bd fe f1 d8 be
       0.12124975 0.17656556 -0.03874935 -0.42372125
000230 90 42 61 3e b3 a2 b5 be 68 fa e0 3d a5 b6 83 be
       0.21998048 -0.35475692 0.10985261 -0.25725284
000240 15 65 5b be a7 24 37 bd 46 24 aa 3e 5e ae 7a 3d
       -0.21425278 -0.04471269 0.332308 0.061201446
000250 68 92 16 be a6 c3 cf be fb c1 7c 3e 6a df 13 3f
       -0.14704287 -0.40578955 0.24683373 0.5776278
000260 3f 3e 81 be 90 ca da be ac 6b 76 3e 4e 13 9f be
       -0.25242803 -0.42732668 0.24064511 -0.31069416
000270 5f 80 28 bd ff f2 89 be 7b 85 c2 3c 7d 30 94 3e
       -0.04113805 -0.26943204 0.02374529 0.28943244
000280 5d ce 3f 3e 09 ec 03 be 80 70 9d be 6c fd a3 be
       0.18731065 -0.12883009 -0.30749893 -0.32029283
000290 33 9d bb bc 0d a7 e0 be 2e 4b 8f be a4 fe e3 3d
       -0.022902107 -0.4387745 -0.27987045 0.11132553
0002a0 31 14 18 be c5 94 b4 be 17 c8 70 3d 0b b1 85 be
       -0.14851452 -0.35269752 0.05878457 -0.26111636
0002b0 6f 79 50 be 5a 0f 99 3e 1e 9c 14 3c 65 e8 e5 3d
       -0.20358823 0.29894525 0.009070424 0.11225966
0002c0 ce 1e 05 3e 49 01 77 3d 48 4f 69 3e ea b4 8b be
       0.13000032 0.06030396 0.2278415 -0.27286464
0002d0 ad 3d 1c 3e aa 89 07 bc 00 f4 ed be b8 80 57 bf
       0.15257902 -0.008272568 -0.4647522 -0.84180784
0002e0 e4 f6 ea be 53 69 1a 3d cf e8 df 3d 94 e3 f6 be
       -0.45891488 0.0376981 0.109330766 -0.48220503
0002f0 25 d1 a7 3d 50 6a a5 3e 49 58 a6 bc c2 b3 aa be
       0.08194188 0.32307673 -0.02030577 -0.3334027
000300 00 51 45 3e 7b 17 28 3d 01 45 23 3e c7 3a 02 3e
       0.1926918 0.041038018 0.15944292 0.12717734
000310 38 02 54 3c cc 4c 9c be 05 f3 a4 3e 4f a4 bc 3e
       0.012939982 -0.3052734 0.3221666 0.36844108
000320 76 2d a7 be 03 41 10 be d8 76 31 3e 4a 7b c9 38
       -0.3265187 -0.140873 0.17330492 9.607391e-05
000330 33 25 47 3e 13 bb 9d be 73 03 e3 be aa 66 0a 3e
       0.19447784 -0.3080679 -0.4433857 0.13515726
000340 a0 ca d5 bc cc 16 5b bc ac f7 c2 3d 27 4f cc 3e
       -0.026097596 -0.013372134 0.09519896 0.39904138
000350 55 f1 b7 3d 6d e8 9b be 50 5e 1b bd 32 fb 3b 3e
       0.08981577 -0.30450764 -0.03793174 0.18357542
000360 5d fe 28 be 85 cb a9 be 6e 4b b5 3e 26 96 5f be
       -0.16503282 -0.33163086 0.3540911 -0.21834621
000370 09 13 ff 3d 34 50 8e be 9b 07 ad 3e aa db b2 3e
       0.124548025 -0.27795565 0.33794865 0.34933215
000380 0e 61 b1 bc c3 ce 7e bd f0 1f 86 bc bd b0 02 be
       -0.021652725 -0.062208902 -0.01637265 -0.12762733
000390 7a 68 a3 be 50 27 12 3e f2 64 9a be 09 e4 98 3e
       -0.31915647 0.14272809 -0.3015514 0.29861477
0003a0 cd 16 9e 3d 6b f9 9c be 7d 36 d4 be b9 2d ee be
       0.07719193 -0.3065904 -0.4144782 -0.4651926
0003b0 14 b9 ae 3d 01 eb 1c 3e 85 13 36 be cb d5 b2 be
       0.085313946 0.15324022 -0.17780884 -0.34928736
0003c0 6f 13 c1 3e b3 f2 87 be 45 47 8d be 3a 51 aa 3d
       0.3771014 -0.26552352 -0.27593437 0.08316274
0003d0 bb 4e d1 be a3 15 1c 3e ad 5f 19 bd 5e 41 be 3e
       -0.4088038 0.15242629 -0.03744476 0.37159246
0003e0 b9 78 cb 3e 10 57 3f 3e 9b c3 80 3e 08 be 09 bf
       0.39740542 0.18685555 0.25149235 -0.5380559
0003f0 be 57 8b 3d 00 77 98 3e 0f f0 22 be 22 fa c3 bd
       0.06803845 0.2977829 -0.15911888 -0.095691934

a2c_network.actor_mlp.2.weight f4 [128, 256]
000000 7d 0d ab be 17 da 53 3b c4 80 22 be c6 34 cc 3d
       -0.33408728 0.0032326037 -0.15869433 0.09971003
000010 b9 52 39 be a8 01 63 3d 58 af 03 be b1 55 90 bd
       -0.18097962 0.0554215 -0.12859857 -0.07047594
000020 e0 aa 38 3e 77 dd b9 be a4 f3 48 3e 35 63 e9 be
       0.18033934 -0.36301777 0.19624192 -0.455835
000030 2c 5e 98 bd bd c3 15 be ac 4f a0 bd fa 83 97 be
       -0.07439837 -0.1462545 -0.07827696 -0.29592878
000040 ac c2 71 bd f8 be 7e 3d 3a 48 86 be 02 95 df bd
       -0.059023544 0.06219384 -0.2622698 -0.10917093
000050 7f 7b aa be 92 8b e4 be 7f 6a e3 3d 84 59 47 bd
       -0.33297345 -0.44637734 0.11104297 -0.048669353
000060 2c e9 18 be ed 96 a4 be 78 13 cc bd d6 c8 06 be
       -0.14932698 -0.32146397 -0.09964651 -0.1316255
000070 f9 54 4d bd 99 f3 11 3e 20 ab 01 be 23 d3 e4 be
       -0.050129864 0.14253081 -0.12662935 -0.44692335
000080 43 31 1f bc dc 75 03 3b 31 28 86 be 53 d2 f9 bd
       -0.009716335 0.0020059263 -0.2620254 -0.12198319
000090 6f 08 eb bd 06 3c f0 bd d5 44 a0 3d a0 7c 44 3d
       -0.11476218 -0.117301986 0.07825629 0.047970414
0000a0 8e c5 9f be 73 63 b8 3d bd f5 a8 be 58 f6 87 be
       -0.3120541 0.090033434 -0.32999983 -0.26555133
0000b0 d5 17 3e 3e 22 fb 94 3c 8d a4 0d be 1f ed 4f bc
       0.18563779 0.018186156 -0.13832302 -0.012690811
0000c0 e3 65 81 3e 8a 6e c2 be a9 8c b2 3d 9e 86 6a bd
       0.25273046 -0.3797496 0.08718235 -0.057257287
0000d0 42 00 be be e7 97 db bc 89 bc 6d 3d 82 47 d7 3d
       -0.37109572 -0.026805831 0.05804113 0.10511686
0000e0 06 33 07 bd 08 c8 7e 3d 16 de 9e 3d 39 61 99 bd
       -0.033007644 0.062202483 0.07757203 -0.07489247
0000f0 3d 74 bc be b0 be c4 bd d1 4a bc be e2 29 24 3d
       -0.36807433 -0.09606683 -0.3677583 0.040079005
000100 d3 c6 3b 3e e7 84 ac be e1 a5 1d bd 84 d3 b4 3b
       0.18337564 -0.33695146 -0.038488273 0.0055183787
000110 73 9c b8 3d a9 77 72 be 7e ef ab 3d d0 99 81 3d
       0.09014215 -0.23678459 0.08395289 0.063281655
000120 0c 88 61 be a8 a5 b3 bd 8e a2 76 bd 2b e6 bf bd
       -0.22024554 -0.08771831 -0.060213618 -0.09370073
000130 a8 0a ab be 32 61 84 be 5f e8 de bd 88 46 1a bd
       -0.33406568 -0.25855404 -0.10884165 -0.03766492
000140 92 45 2e 3d df df 75 bd 76 3c b8 be 3f f2 f7 bd
       0.042546816 -0.060027953 -0.35983628 -0.12106752
000150 4f 26 11 bd d6 13 33 be 0b 2b b5 ba a1 ed a0 bd
       -0.035436925 -0.17488036 -0.0013822032 -0.07857824
000160 f6 7a be bd 6d cf 7e be 4b e3 31 bd 24 a5 65 3e
       -0.09300797 -0.24883814 -0.043429654 0.22426277
000170 61 ff 88 be 9d 2d 46 be ea 03 8a be 35 99 74 be
       -0.2675734 -0.19353338 -0.2695611 -0.23886569
000180 f5 d5 93 bc 6c 96 c3 be 42 9f 33 be f4 5c 35 be
       -0.018046359 -0.382007 -0.17541221 -0.1771124
000190 d2 8a 0c bd a3 0c 90 3d 72 9f b3 3e 1e a2 eb be
       -0.034312077 0.0703366 0.35082585 -0.46022123
0001a0 e6 0b 23 be 4d 7f 9f bd 0d e8 ec bb ca d8 6b be
       -0.15922508 -0.077879526 -0.007229811 -0.23031917
0001b0 5a d8 e4 bd d1 ba 74 be 25 ea 0e be 2b 68 b0 be
       -0.11174078 -0.2389939 -0.13956507 -0.34454474
0001c0 dd a7 43 be 92 c8 3b be f8 8b c3 3d 94 c9 6e bc
       -0.19107004 -0.1833823 0.09548181 -0.014574427
0001d0 90 cb 1b bf 28 31 05 be ef b5 a3 3d 47 2f 4b 3d
       -0.60857487 -0.13007033 0.079936855 0.049605634
0001e0 7b 57 5d bd da cf 00 be 76 75 22 3e 5c a9 b9 bd
       -0.054038506 -0.12579289 0.1586512 -0.09065506
0001f0 fc 4e 99 bc 58 44 2b 3e c9 c6 28 be 96 42 0f 3e
       -0.01871442 0.1672529 -0.1648208 0.13990244
000200 e4 7c b2 bd e7 c5 fc be 8b 4f f6 3d 8f 43 ce 3c
       -0.08715227 -0.49369738 0.1202689 0.025178699
000210 fc 0b 1a be 93 5a 59 be 44 e8 0e 3e 7f 3c 7a bd
       -0.15043634 -0.21225958 0.1395579 -0.06109285
000220 ad c8 18 bd 3c 58 be be aa 34 d5 bd bd cc 22 3e
       -0.037300754 -0.37176692 -0.104104355 0.15898414
000230 f2 61 15 be a9 1f 73 3c c7 d3 ff bd 79 bc 3e bd
       -0.14588144 0.014839091 -0.12491565 -0.04656646
000240 be ff 84 3c b3 f7 53 3e 2b b2 86 be e5 e2 8d be
       0.016235229 0.20699959 -0.26307806 -0.2771217
000250 4a 67 90 bd e1 3a bd bd da fb a1 be 0d 87 b7 bd
       -0.07050951 -0.09239746 -0.3163746 -0.08961306
000260 5c 17 55 3d 2d bc 41 bd 48 43 67 be df 44 ad bd
       0.05202423 -0.0472986 -0.2258426 -0.08460402
000270 22 09 22 3d 95 56 d1 bc 38 d4 e4 bd 33 0c 70 be
       0.03955949 -0.02555398 -0.1117329 -0.23442154
000280 ff 1e 89 be d3 46 4e 3e 5c 7e 73 3e a9 fa 92 3e
       -0.2678146 0.20144205 0.23778671 0.28706864
000290 30 88 12 be 8a 9f 1e bd 3d 7d 24 3e ed 91 9c 3b
       -0.14309764 -0.038726367 0.160634 0.004778138
0002a0 cf a8 b6 3d 76 4a e5 3d 89 43 18 be 5d 44 26 3d
       0.089189164 0.11195843 -0.14869513 0.04059254
0002b0 5a b7 ff bd c0 e5 a4 bd c5 15 63 3e 3e 7c 8a be
       -0.124861434 -0.08051634 0.22176273 -0.27047914
0002c0 95 87 0c be 6c 8b ae be c2 9e 43 39 1b cd 62 bd
       -0.13723595 -0.34090745 0.00018655791 -0.055371385
0002d0 fb a8 56 be 06 94 49 3b 59 a1 28 bd 8c 3b c9 bd
       -0.20962898 0.0030758395 -0.041169498 -0.09825811
0002e0 f1 a2 b2 bb 24 3b 6f bd de bc f7 3c 59 d0 2c 3d
       -0.005451553 -0.05840601 0.030241426 0.042190883
0002f0 ce 59 ce bc 1d 3c 94 be aa e0 e5 bc 8d 4e 95 3d
       -0.025189307 -0.28952113 -0.02806123 0.07290373
000300 c9 2d b1 be 0d 97 38 3d 99 84 95 be 95 98 0f be
       -0.34605244 0.04506593 -0.29202726 -0.14023049
000310 0d 5f 3e be 66 d3 cd 3d e0 34 a2 be f7 ac 8e be
       -0.18590946 0.10050087 -0.31680965 -0.27866337
000320 2e 98 c4 3d c8 44 3a be 71 3e 38 be c7 c3 f9 bd
       0.095993385 -0.181903 -0.1799257 -0.12195545
000330 63 68 ca bd 33 4a 34 bc 51 1d 20 3e 5b 76 ff bd
       -0.098831914 -0.011004019 0.15636183 -0.124737464
000340 3d 82 0f be 60 7c a6 3d 9d 33 3e be e0 f2 de be
       -0.14014526 0.081291914 -0.18574376 -0.43544674
000350 e1 e2 9d be 81 d7 51 3e 75 6b 1b 3e 88 eb 8f be
       -0.30837157 0.20492364 0.1517771 -0.28109384
000360 b1 39 c5 3d f0 bd 88 bc 64 4e e1 3d de 96 13 3d
       0.096301444 -0.016692132 0.1100128 0.03603255
000370 07 34 e6 bd b9 1b e5 3b a2 c0 6f bd ec c0 f8 bd
       -0.11240392 0.00699183 -0.05853332 -0.12146172
000380 90 d2 dd 3d 12 5a 12 be 31 ff 1a 3e 03 22 7a 3d
       0.10831177 -0.14292172 0.1513641 0.061067592
000390 8d eb da be 1c 1c fc bc 93 fa e3 3d ae d4 48 bc
       -0.42757836 -0.030775122 0.111317776 -0.012257738
0003a0 7c 91 16 be 12 28 f3 bc 31 a1 2d 3e 62 bc 49 3e
       -0.14703935 -0.029682193 0.16956021 0.19700769
0003b0 8e 3e 58 be a3 12 64 bc 69 86 a5 bd 37 1d 26 3e
       -0.21117613 -0.013920459 -0.08082277 0.16222082
0003c0 78 92 a4 be 35 4c fc bd 5a 93 61 bd 81 ea 58 be
       -0.32142997 -0.12319223 -0.055072166 -0.21183206
0003d0 11 62 8f 3e 17 9b 80 3d bb 04 ab 3d 57 89 9f be
       0.28004506 0.06279581 0.08350512 -0.3115947
0003e0 9d 51 8c be 8c 41 86 be a9 55 d0 bd 67 a9 9e 3e
       -0.27406016 -0.26221883 -0.101725884 0.3098862
0003f0 af 9f 56 bc 81 7e db bc df 41 a6 3d 1a a5 15 bb
       -0.013099595 -0.02679372 0.08118033 -0.0022834004

a2c_network.actor_mlp.2.bias f4 [128]
000000 2f af 97 be e7 f6 7d 3d fd 41 a9 bd c1 c9 7c 3d
       -0.29625842 0.062003043 -0.082645394 0.061715845
000010 a3 46 49 be da 84 a4 be 06 ea b4 be 17 c7 8a be
       -0.19655852 -0.32132608 -0.35334796 -0.27105018
000020 60 fb 95 bd 06 88 a5 be 9f 1d e3 be 69 bb 76 be
       -0.073233366 -0.3233034 -0.44358537 -0.24094929
000030 b3 9a 0c be 20 75 8d 3d 84 30 b4 3c 4e 9c 93 be
       -0.13730888 0.069071054 0.02199579 -0.2883019
000040 43 f4 e2 bd cb cf c4 be 04 6c 41 be e6 3a c8 bd
       -0.110817455 -0.38439783 -0.18888861 -0.09776859
000050 cb 63 02 be 5b 35 80 be 9f 4b 9e 3d 61 55 03 be
       -0.1273338 -0.25040707 0.07729267 -0.12825538
000060 4f 42 da 3c aa f7 40 be f5 71 b0 3c d0 c5 44 bc
       0.026642947 -0.18844476 0.021538714 -0.012010053
000070 ef 04 5a 3d 44 7b e7 be 7d 04 cd be 0e c7 0f be
       0.05322736 -0.45211232 -0.40042487 -0.14040777
000080 fc b4 0d bf d3 66 25 be 29 dd 11 bd ec 99 b3 3b
       -0.55354285 -0.16152506 -0.035611305 0.0054809954
000090 89 ac b1 be 9b fc 78 bc 52 2c 2e be 3c 27 d0 be
       -0.34701946 -0.015196945 -0.17009094 -0.40654933
0000a0 6c ae 95 be 3a 0f fd bd 71 62 ae be d8 18 8d 3d
       -0.29234636 -0.1235642 -0.3405948 0.06889504
0000b0 d8 b1 87 be 30 a5 1e 3d fa 4d d6 bd 06 07 79 be
       -0.26502872 0.038731754 -0.104640916 -0.24319085
0000c0 26 a5 5d bd e2 be 1a 3d 6f 6e 80 be ca c4 66 be
       -0.054112576 0.037779696 -0.25084254 -0.22536007
0000d0 62 d6 4b be ad 4d cc be 06 52 46 be fa e2 d4 be
       -0.19906 -0.39903012 -0.19367227 -0.4157942
0000e0 b2 36 ef be 9b 36 f0 be 5b 5f d7 bd 0a 47 c9 be
       -0.46721417 -0.4691666 -0.105162345 -0.3931201
0000f0 46 67 af be 23 3e e0 3d 75 f8 3c 3c 98 56 f8 3d
       -0.3425848 0.10949352 0.011533846 0.121258914
000100 7f 3a 82 3d e9 46 4f 3d 74 01 a2 be 48 25 89 3d
       0.063588135 0.050604735 -0.31641734 0.06696564
000110 89 2d c6 3c af 69 11 be 6d 5d 12 bc d7 3a 75 be
       0.024191635 -0.14200471 -0.008933407 -0.23948227
000120 bf fa 45 3d 8f a7 9c 3d 96 e6 b8 be 6a 2c 93 be
       0.048334833 0.07649147 -0.36113423 -0.28744823
000130 ff b7 67 3e 56 78 d9 bd b0 27 9e bd 23 ee ca bd
       0.22628783 -0.106186554 -0.077224135 -0.09908702
000140 7e c5 98 be 22 af 11 be e6 be 7d be e0 16 2b 3c
       -0.29838175 -0.14226964 -0.24779853 0.010442466
000150 eb d9 bb bd 94 4c 4d bd 49 a2 bd bd 8a 08 4b be
       -0.09172424 -0.05012186 -0.09259469 -0.19827476
000160 10 91 83 be f9 51 d5 be 91 41 e6 be 05 aa 96 bc
       -0.2569661 -0.41664103 -0.44971898 -0.018391619
000170 f5 23 13 3d 4f 55 1a bf c8 96 94 bd 33 80 23 bf
       0.035922963 -0.6028642 -0.07255322 -0.6386749
000180 da 49 c3 be 5b d0 b1 be 91 31 48 be c2 67 b9 3c
       -0.38142282 -0.34729275 -0.19550158 0.022632483
000190 00 53 d1 bd 4a 05 86 be e7 f4 00 bd 86 3c 5e bd
       -0.10220909 -0.2617591 -0.031483557 -0.05425694
0001a0 b0 bb 7f be 77 20 09 3e 80 94 66 3e bb a6 a5 bd
       -0.24973941 0.1339129 0.22517586 -0.08088442
0001b0 e8 07 e3 bd 2d 36 82 3e 98 ae 25 bd f6 a4 e0 bd
       -0.11085492 0.25431958 -0.04044971 -0.10968964
0001c0 6d 20 a7 bd d7 23 b1 bd 48 b9 f3 be 7a 99 e7 be
       -0.081604816 -0.08649414 -0.47602296 -0.4523428
0001d0 2b 6d 96 be b0 a5 85 be a2 9e 22 be 4b 3b 33 be
       -0.29380164 -0.26102972 -0.15880826 -0.17503087
0001e0 4a e7 45 be 39 6d 05 3c 59 91 87 be 19 38 a6 3c
       -0.19326511 0.0081437165 -0.2647808 0.020290421
0001f0 79 b0 da be 0d b8 4c be 86 d2 93 3d aa d8 05 bd
       -0.42712763 -0.19992085 0.072178885 -0.03267733

a2c_network.actor_mlp.4.weight f4 [64, 128]
000000 3f 24 b3 3e ce fe bc bd 77 b8 de 3d 80 af 8c 3d
       0.3498859 -0.09228288 0.108750276 0.068694115
000010 4b 11 a4 bd ea 1f d5 bd 05 c0 09 be 3e ee c1 bd
       -0.08011111 -0.10406478 -0.13452156 -0.09469269
000020 3e 7d ab bd 12 1d 85 3c 1e 3c 40 be b3 e8 c0 3b
       -0.083734974 0.016249213 -0.18772933 0.005887115
000030 eb a2 d7 bc e6 ec e0 bd e7 66 11 be e9 87 ef 3c
       -0.026322803 -0.10982685 -0.1419941 0.029239612
000040 d6 b4 ef ba 17 cd 1f bd 9f 84 0f 3e 6b 3f 05 3e
       -0.0018288146 -0.03901395 0.14015435 0.13012473
000050 de ac 72 3d 12 f6 da bd a7 3b 58 bd bb 19 28 3d
       0.05924689 -0.106914654 -0.052791264 0.041040163
000060 71 04 f5 3c 6f a0 3c 3e d2 2a 6a 3d 10 45 79 3c
       0.029909344 0.18420576 0.057169743 0.01521422
000070 f2 6d bc be 78 7d 10 bc 81 0f 46 3e 2b a1 5e be
       -0.36802632 -0.008818977 0.19341852 -0.21741168
000080 1d d8 10 3c 65 ac d2 bd c1 17 52 be ed 78 3e 3d
       0.008840588 -0.10286788 -0.20516874 0.046502043
000090 00 4b 65 3e 39 42 cb bd 72 0e 21 3d da 37 01 be
       0.22391891 -0.0992474 0.039320417 -0.12618962
0000a0 fe 62 71 3d 63 70 f9 bb 7e b1 eb 3d 7f 83 3c bd
       0.058932297 -0.0076122745 0.11508463 -0.046023842
0000b0 25 1e cd 3d 2d 46 a6 be c9 f0 fa 3d da 0e 9e 3e
       0.10015515 -0.32475415 0.122529574 0.30870706
0000c0 f6 67 97 3d 5b a0 4e bc 12 fb f9 bd 50 72 11 3e
       0.07392876 -0.012611474 -0.12206091 0.14203763
0000d0 91 28 64 bc f0 a4 9d 3d 44 65 01 be 4b 1b 00 3d
       -0.013925687 0.07697475 -0.12636286 0.03127603
0000e0 1b 63 1d bc c3 05 12 3d 06 74 d2 bd 0a 89 51 bc
       -0.009606148 0.035650026 -0.10276036 -0.01278902
0000f0 1d ef 64 3e 45 22 29 be fe 7b 37 3d cc e4 a8 bd
       0.2235684 -0.16516979 0.044795983 -0.082467645
000100 0a 7e da bd c3 7d 28 bd 39 13 26 3c f9 e9 df 3d
       -0.10668571 -0.04113556 0.010136419 0.109332986
000110 62 5f f5 bd 77 ac ff 3c 6b 31 cd 3d 61 39 33 3e
       -0.119810835 0.031210167 0.10019191 0.17502357
000120 49 85 74 bd 94 d3 0f be 89 52 71 3d 90 f9 d6 3c
       -0.059697423 -0.14045554 0.058916602 0.026242048
000130 42 1e e3 be 05 11 2b 3e 49 4e 07 bd 6c 73 04 3e
       -0.44359022 0.16705711 -0.033033643 0.12934655
000140 9f 07 80 bd cb 24 5f bd b5 c5 cb bc f8 96 cf bd
       -0.062514536 -0.054478448 -0.024874547 -0.10136217
000150 12 32 2a 3d 6f f4 29 be ea f2 a9 3c fc c0 49 3b
       0.041551657 -0.1659715 0.020745713 0.0030785194
000160 1a 05 27 3d 7d 8d 25 3d 37 f4 e6 bd c1 7e f6 3c
       0.04077635 0.040418137 -0.11277049 0.030089738
000170 d3 34 29 be ab e4 71 3c 21 7e 49 be 0e bf 9e be
       -0.16524057 0.014763991 -0.1967702 -0.31005138
000180 51 94 84 3c 4f 2c 5a 3e ac 04 38 3e 37 a0 c7 bd
       0.016184004 0.21305965 0.17970532 -0.097473554
000190 cd 98 52 3c 27 ee 0a bc 73 41 66 be 93 ee 01 be
       0.012853813 -0.0084796315 -0.22485904 -0.12688665
0001a0 ab 08 59 3e 7c d7 d8 3c b9 8b d3 3c 2c b1 12 be
       0.21194713 0.026469938 0.02582346 -0.14325398
0001b0 c4 8f d1 bd 19 db 0d be 37 a2 44 bb 55 30 e1 3d
       -0.10232499 -0.1385311 -0.0030003914 0.10995547
0001c0 fd 6e c6 3d 11 84 d6 3d 72 b3 2f be 16 08 b7 bc
       0.09689138 0.104744084 -0.17158297 -0.022342723
0001d0 97 24 1b 3e 11 4b 01 be b4 5b fd bb f8 f3 0b bd
       0.15150677 -0.12626292 -0.007731879 -0.034168214
0001e0 a2 91 42 be fe f7 c7 bc 1f 9b bf 3d f1 99 94 be
       -0.19000867 -0.024410244 0.09355759 -0.29023698
0001f0 33 b9 f8 3d c3 1e 0e 3e d7 6c a3 3c 7e 90 63 bd
       0.12144699 0.13878922 0.01994936 -0.05555772
000200 19 bd 2e 3d ad 5d aa be f3 54 6f 3d 02 84 00 3e
       0.042660806 -0.33274594 0.058430623 0.12550357
000210 6a a5 1d be c3 38 99 3b 40 a9 2e be e1 f9 8f 3d
       -0.15395132 0.004675956 -0.17056751 0.070300825
000220 24 55 07 be 91 5c 84 bd b8 74 fc 3d 3e a8 77 3e
       -0.13216072 -0.06462968 0.1232695 0.24185273
000230 47 55 04 bd 65 1e 3a be 41 93 28 3d 15 10 72 bc
       -0.03230789 -0.18175657 0.041156057 -0.014774342
000240 60 e8 5c bd d0 55 95 3d 24 80 91 bb 7a f4 9e be
       -0.053932548 0.07291758 -0.0044403244 -0.31045896
000250 7e ac a3 3b 87 47 32 3e b8 42 ea 3d a9 5a 6d bc
       0.004994928 0.17410098 0.11438507 -0.014486947
000260 e4 75 b4 3d 1e 47 2d 3e fd df 37 3e 10 79 ca 3b
       0.08811548 0.1692166 0.17956538 0.0061789826
000270 6b db 08 be 9b f8 43 3e 03 76 5e 3d e7 90 f4 3d
       -0.13364951 0.19137804 0.054311763 0.119417004
000280 04 d7 aa 3c 1c c9 c1 3e fc 00 b3 3c d1 19 90 3d
       0.02085448 0.37848747 0.021851055 0.07036174
000290 a3 53 b2 bb d5 0a aa bc 4f 0e 6c bd 10 4b f2 3d
       -0.005442099 -0.020757118 -0.057630833 0.11830723
0002a0 e9 a3 89 be 9e ba 9e be 53 a6 cf bd 18 f8 55 be
       -0.26882866 -0.31001753 -0.10139146 -0.20895422
0002b0 2c df 5f 3d 94 2d 79 bd de e7 e7 bc b1 80 33 3e
       0.054656193 -0.060834482 -0.028308805 0.1752956
0002c0 73 45 9e bd ab be 40 3d 1c af 38 3e 95 7d e1 bc
       -0.0772809 0.047056835 0.18035549 -0.027525702
0002d0 f9 9d 21 3e f0 63 31 3e 9d 8f 9c bb ac ec a7 bc
       0.15782918 0.1732328 -0.004777862 -0.020498596
0002e0 24 f9 4f 3e b8 6b 3d 3e f4 cb f2 bd 84 9f a3 3c
       0.20309883 0.18498123 -0.11855307 0.019973524
0002f0 d5 1c 81 3d a0 93 f0 bb 6b 5d 88 be 3c 75 a7 bd
       0.063043274 -0.007341817 -0.26633772 -0.081766576
000300 a5 33 b0 be 8a b6 3e be f5 bb ad 3d 10 a1 a8 bb
       -0.34414402 -0.1862432 0.084831156 -0.0051461533
000310 0d 7b 73 bb 5c 09 39 3e d7 4b ad bc 4f 06 31 3e
       -0.0037152201 0.18069977 -0.021154327 0.17287563
000320 3b 5b 79 3d 0d 4b 50 3d 4d 12 45 3e 21 84 17 3e
       0.06087802 0.050852824 0.19245262 0.14796497
000330 1f 21 f5 be 69 8a 90 bc fb 2b d4 3d 70 c0 71 be
       -0.47876832 -0.017644124 0.10359951 -0.23608565
000340 8b b7 e4 bd ce cd e7 3d af 1a 6e bc 3c 75 cc 3c
       -0.111678205 0.11318551 -0.014532729 0.024958245
000350 56 78 d5 bd ce 3b a1 3d 8f 5b 2c 3d f7 01 fb be
       -0.10423343 0.07872735 0.042079505 -0.49024937
000360 48 89 18 3c 17 e8 07 bd b8 ae c0 bd f7 4f d5 bc
       0.009310074 -0.033180322 -0.09408325 -0.026039107
000370 5b 72 2a be 52 d6 ac 3d 2a 7c 25 3d 50 03 85 3e
       -0.16645186 0.08439316 0.040401615 0.2597909
000380 0f 6a 0f 3e fa 6e a8 be a4 9e f9 bd 97 8c 1b bc
       0.14005302 -0.32897168 -0.121884614 -0.009493968
000390 88 67 72 be f6 3a ad 3d 98 de fc bd 55 f4 39 3b
       -0.23672307 0.084585115 -0.12347144 0.0028374393
0003a0 71 3f 5c 3d 62 f0 f3 bd bd a0 8a 3c 0a 5e aa ba
       0.05377144 -0.11911084 0.01692235 -0.0012997997
0003b0 20 9a 57 3d b0 b9 18 bf 20 3c 1f bd d8 67 4c bc
       0.05263722 -0.59658337 -0.0388757 -0.01247593
0003c0 cc 6e d4 3d af c6 02 bd 0b 29 1d 3d cd 7b 15 3e
       0.10372695 -0.03192776 0.03836922 0.14598008
0003d0 8b 5f 6a bd 5c 14 78 be 9e dd 04 bd cf eb 5e 3d
       -0.057220023 -0.24226516 -0.032437913 0.054424103
0003e0 b8 70 01 be 10 4b a0 bc 07 67 d1 3c 70 b9 eb 3c
       -0.12640655 -0.019567043 0.025561823 0.028774947
0003f0 87 06 df 3d c4 73 0e 3e a2 4d 4b bd d9 24 7f 3d
       0.10889917 0.13911349 -0.049634583 0.062291

a2c_network.actor_mlp.4.bias f4 [64]
000000 d0 d0 0d be 80 ff 30 be ef 68 e3 bc f5 45 93 be
       -0.13849187 -0.17284966 -0.027759997 -0.2876431
000010 7c db 2c be a7 5f b0 bb d6 09 a4 bd 7c 02 3c bd
       -0.16880602 -0.0053824964 -0.080096886 -0.045900807
000020 dd fb 86 be b1 15 c8 3b f9 dd 5b 3c 1e 21 e2 bd
       -0.2636403 0.0061061014 0.013419622 -0.11041473
000030 d7 20 31 bd da ac 1a be 31 a2 f9 3d f8 57 ba be
       -0.04324421 -0.15105 0.12189139 -0.3639524
000040 37 bc 38 bc 55 f7 2b be 72 5d f9 3d 8f 12 86 be
       -0.011275343 -0.16793568 0.121760264 -0.26186034
000050 46 86 7e bd bd 0a 98 bd 12 ed f0 bc ff 0e 10 3e
       -0.062139772 -0.07423923 -0.029409919 0.1406822
000060 fa 74 fe 3d 29 a1 09 bd 05 2a c0 bd 08 86 12 bc
       0.12424655 -0.03360096 -0.093830146 -0.008943088
000070 58 af 79 be d3 03 69 3c 89 fd 41 be 73 1b 93 bd
       -0.24383295 0.014222103 -0.18944372 -0.0718297
000080 9d 29 24 bd 66 47 34 be b5 f9 cf bd 55 5c 56 3c
       -0.040078748 -0.17605361 -0.1015505 0.013083537
000090 f5 ae 89 bd eb d6 64 bd 7f bd f2 bd 0a 6e 7d 3d
       -0.067228235 -0.055869024 -0.1185255 0.06187252
0000a0 95 22 f4 bd cb a2 f0 bc 77 be 9f be 6d ba 2f bd
       -0.119206585 -0.0293745 -0.312 -0.0429024
0000b0 28 2e 1c 3c c9 72 b3 bc dc 2a f2 bc 65 5f 86 be
       0.009532489 -0.02190532 -0.029561453 -0.26244655
0000c0 c8 a3 92 3c 4e 35 63 be f0 d9 41 be f0 40 c7 bd
       0.017900363 -0.22188303 -0.18930793 -0.09729183
0000d0 12 4b e7 bd 40 6b a5 be 99 8d 67 be 67 1c 06 be
       -0.112936154 -0.32308388 -0.22612609 -0.13096772
0000e0 56 9a cd bc 59 2f 59 3d 23 3f 34 be e8 04 35 3d
       -0.025098007 0.05302367 -0.1760221 0.044194132
0000f0 68 16 10 bd d8 61 06 3d 82 48 0f be f1 34 ac be
       -0.03517762 0.032808155 -0.13992503 -0.3363414

a2c_network.value.weight f4 [1, 64]
000000 6a 6f b4 ba ee f2 95 3b d5 a7 c0 3e ef 43 dd bb
       -0.0013766114 0.0045760786 0.37628046 -0.006752483
000010 92 3f 4d bc 42 f0 6a bd c4 f3 c9 bc 97 a0 bf 3b
       -0.012527363 -0.057358034 -0.02465237 0.005848001
000020 df 2a 15 bc 1e 6e 7d bc 27 48 f7 3b 0b cf d4 bb
       -0.00910446 -0.0154681485 0.007546443 -0.006494408
000030 7a 87 80 3c 98 1a 0f 3f c5 c9 47 3d e5 e9 dd bc
       0.0156896 0.55899954 0.048776407 -0.027089069
000040 a5 de 5a bd d4 04 34 be 06 a3 0e 3d ef 6c a4 3a
       -0.053434987 -0.17579967 0.03482344 0.0012544672
000050 b6 01 58 bc 61 2c b5 3b 98 89 8c 3d 90 1f c0 3c
       -0.013184002 0.005528972 0.068621814 0.02345255
000060 c0 cc a4 3e 44 a9 0c 3e db ed 3f 3e 51 2c a1 3c
       0.32187462 0.13736445 0.18743078 0.019674452
000070 2a 49 12 3c 88 d7 a6 ba 54 a1 f6 ba 2e 9d a8 3b
       0.0089285765 -0.0012729028 -0.001881639 0.0051456904
000080 5f 2e bc 3a f5 44 af 3e 83 6a f9 bb d3 16 11 3d
       0.0014357081 0.34232298 -0.007611574 0.035422157
000090 17 a9 0a 3b 85 cd ab be ab 13 21 bd 35 4c 8b bc
       0.0021157914 -0.33555236 -0.039325397 -0.017004112
0000a0 aa f3 48 bc 9b bf a3 3b f4 6f bf bc f4 d5 99 3e
       -0.012265125 0.0049972064 -0.023368813 0.30046046
0000b0 fa 54 18 3c 33 c1 99 bc 80 7b cc 3d 34 18 86 3e
       0.009297604 -0.018768882 0.09984493 0.2619034
0000c0 cf b2 89 3b 3d c3 c7 bb 4c d9 0e be 09 86 ff 3d
       0.004202224 -0.0060962723 -0.1395008 0.12476737
0000d0 61 d4 97 bb e8 37 5d bd bb 23 25 bb 70 26 37 bd
       -0.004633472 -0.054008394 -0.00251983 -0.04471439
0000e0 00 8b 60 3c 11 07 1e bb d0 f6 15 bd 1e 9d da 3b
       0.013705015 -0.0024113099 -0.036612332 0.006671562
0000f0 02 66 0d 3e f4 37 5a 3a dd 6d 1f bc fd c4 e2 bd
       0.13808444 0.00083243777 -0.009730783 -0.11072729

a2c_network.mu.weight f4 [7, 64]
000000 4b 93 8e 3d d6 9e b6 bd 7e b9 02 3c ed 3b 02 3b
       0.06961688 -0.08917014 0.007978795 0.0019872144
000010 4f fa 80 3c 31 f6 08 3d 24 14 ae bc 25 fa a3 bc
       0.015744356 0.03343791 -0.021249838 -0.02001674
000020 75 c4 0a bd c7 b3 8c 3c ad 74 2f 3c 85 06 84 3b
       -0.033878762 0.017175568 0.01070897 0.0040290975
000030 79 13 76 bc 8a 05 86 bc 22 69 eb bc 89 29 08 bb
       -0.015019291 -0.016360063 -0.028736655 -0.002077671
000040 50 46 a8 3c 7f f6 af bc d2 0e cf bc 92 2b 21 3d
       0.02054134 -0.021479843 -0.025275622 0.039348193
000050 34 19 a4 bb 67 49 e5 bc 08 37 ef 3b 4d c4 23 bb
       -0.0050078873 -0.027989103 0.0073002614 -0.002498883
000060 81 86 84 3c 38 3f c2 3c f1 f9 4d bd 44 48 f3 bc
       0.016177418 0.023711786 -0.05028719 -0.029697545
000070 8f 99 65 3d 7f e5 fd 3a b9 8f fc bd 1c de fb 3c
       0.056054648 0.0019370763 -0.123321004 0.030745558
000080 b3 62 5a 3d ac 99 28 3b 2a 5e c5 bc 6d 22 2a 3a
       0.053316783 0.0025726361 -0.024092752 0.0006490115
000090 ec 93 1a 3d 7a 87 b1 bb ce 07 4c 3c d4 8b 40 bc
       0.037738726 -0.0054177614 0.012453033 -0.011752088
0000a0 39 bc fb bc 30 db 4a bb 0f 30 43 bb e1 cd 3f bb
       -0.0307294 -0.00309534 -0.0029783284 -0.0029267
0000b0 4c 97 52 3c 7c e6 25 bc 0a a7 31 3c 20 04 18 3d
       0.012853455 -0.010125753 0.010843048 0.03711331
0000c0 9e d5 ee 3b e8 ab 79 3d 19 be 55 bc 57 8d a8 3b
       0.0072886487 0.06095496 -0.013045811 0.005143802
0000d0 04 e3 44 bd d9 00 9b 3c 28 4d 73 ba 06 34 86 3c
       -0.04806806 0.018921303 -0.00092812115 0.016382229
0000e0 ff 8c 89 3d 2c c1 8f 3c f1 47 2b bb cb a6 ee 3b
       0.06716346 0.017548166 -0.002613541 0.007283067
0000f0 df be 33 bc f7 39 d4 3b b3 01 24 bc 64 d0 05 3d
       -0.0109708 0.0064766365 -0.010010171 0.03266944
000100 72 64 fa 3b d1 25 52 bd 5b 7d 0d 3c 3f 5b 37 3d
       0.0076413685 -0.051305596 0.008635844 0.044764753
000110 9f 10 fd bc 23 36 da 3c 2e fe 31 3c 3c c7 5f bc
       -0.030891715 0.026637143 0.010863824 -0.013658341
000120 12 46 29 bd 5f f0 f4 bb 34 d7 db 3b fd fd fd 3b
       -0.04132659 -0.0074749435 0.006709004 0.007751225
000130 eb 48 e2 bc 98 04 e8 ba 84 82 d2 bc b7 88 33 3c
       -0.02762266 -0.0017701564 -0.025697 0.010957888
000140 e5 44 db 3c 98 ba 8b bb 25 66 64 3b 08 f1 d8 bb
       0.02676625 -0.004264187 0.0034850922 -0.00662053
000150 11 eb 01 3c e8 54 d3 ba 57 fc 64 bc c7 4d d0 bb
       0.007929579 -0.0016123326 -0.013976178 -0.006356928
000160 c6 a8 3e 3c d8 28 57 3c 54 5c 28 bc 78 42 cf 3a
       0.011636918 0.0131322965 -0.010275919 0.0015812656
000170 30 e3 89 bb 61 83 10 bc a7 3f ca 3d e2 03 66 bc
       -0.004207991 -0.008820386 0.09875422 -0.014039012
000180 83 dc bd 3c fe aa 70 bb 71 80 18 bb 4b 44 11 bc
       0.023176437 -0.0036723013 -0.0023269916 -0.00886638
000190 05 70 72 3c 24 d0 08 bc 72 25 4f 3c de 96 a8 bc
       0.014797215 -0.008350406 0.012643205 -0.020579752
0001a0 4f 05 76 bc cc bd 25 bc 33 31 31 3b e6 5e b5 bd
       -0.015015914 -0.010116052 0.0027037382 -0.08855991
0001b0 1d 84 0d bd e9 60 ea bc 23 94 4b bc 9c e7 8b bb
       -0.03454982 -0.028610663 -0.012425455 -0.0042695533
0001c0 18 3b 8b 3c c0 32 31 3d d4 7d 4b 3b 88 0e cd bb
       0.016995952 0.04326129 0.0031050341 -0.006257836
0001d0 5d 83 3d 3d 2a e3 56 3c d3 96 84 3c d6 b0 21 3c
       0.046267856 0.013115684 0.0161852 0.009868821
0001e0 ee 95 c5 ba e5 34 f2 bb 5a 20 08 3c 32 63 e8 39
       -0.001507459 -0.0073915594 0.008308494 0.00044324395
0001f0 d7 99 ad ba fb b2 6c bc 55 b8 83 bc 8b b7 11 bb
       -0.00132447 -0.014446969 -0.016079107 -0.0022234644
000200 fc 42 dd bc fd 72 05 3d e8 57 9b bc 22 5b bb 3c
       -0.02700948 0.032580364 -0.018962815 0.022870604
000210 c8 16 a6 b9 af 35 28 3c 7a 0a 03 3c a1 76 a7 bc
       -0.0003167896 0.010266705 0.007998103 -0.020442309
000220 17 22 ca 3c 75 7a c2 3a 1b c5 54 bc d3 d4 98 3e
       0.024674458 0.001483752 -0.012986447 0.29849872
000230 7c 3d 43 3c af e0 0b bb 6d c7 d4 3b 59 84 a6 bd
       0.0119165145 -0.0021343639 0.0064935 -0.08130712
000240 b6 83 64 3c ad a6 ea bb b3 55 c2 bd 03 80 eb 3d
       0.013947418 -0.0071609826 -0.09489002 0.11499026
000250 c5 96 50 3b 08 01 78 3b d2 fd 75 3c 70 00 32 bc
       0.0031828147 0.0037842412 0.015014129 -0.010864362
000260 1f c4 7a bc 0d 4a 49 bb 1a 04 a3 3c 98 2c 5f 3c
       -0.015305548 -0.0030714304 0.019899417 0.013621472
000270 13 fe 1d 3d fa 43 af bd 2b 38 37 bd 37 18 80 3c
       0.038572382 -0.085578874 -0.0447313 0.015636547
000280 22 6e 47 bd a2 cb 8a bb ca b2 8f bb 5d 8e 0b bc
       -0.048689015 -0.0042357007 -0.004385327 -0.008517829
000290 7e 46 f2 bd 7d 2e 19 3c cd 1a 80 bc 40 64 49 bc
       -0.118298516 0.009349463 -0.01563778 -0.012291968
0002a0 c2 4c 95 3d 1c 3d 01 bb c4 94 96 3d f5 69 a1 bc
       0.07290031 -0.0019720262 0.073525935 -0.019703845
0002b0 61 ab f0 3b 18 ae 34 3c a9 33 75 bc b1 f6 ae 3b
       0.0073446487 0.011027835 -0.01496593 0.0053394665
0002c0 fa 21 22 be 82 4b cf 3b 24 62 13 bc ce 0d eb bb
       -0.15833274 0.00632614 -0.0089955665 -0.0071732765
0002d0 a2 a7 36 bb 53 06 16 bd 4b 0b a4 3d 85 b0 ee 3b
       -0.0027870913 -0.036627125 0.080099665 0.0072842264
0002e0 d2 17 c6 3b 33 07 37 3d 5e 83 af 3a 93 44 5d bc
       0.00604532 0.0446846 0.0013390591 -0.013505119
0002f0 77 36 2c 3b 39 e5 52 3c 2e b2 5d bd 22 ed 24 bd
       0.002627758 0.012872034 -0.054125004 -0.04026521
000300 c4 a0 20 bc 27 ba ba 3c 82 69 24 bc a4 50 c2 bc
       -0.0098039545 0.022793842 -0.010034921 -0.023720093
000310 ae fb 50 bc 5d 70 71 bb ec 36 b0 3b af 81 ed 3b
       -0.012755318 -0.0036840655 0.005377641 0.0072481255
000320 3e 60 f7 3c 8c 7a 44 3c a9 12 33 bc 76 d4 b5 3b
       0.030197259 0.011992108 -0.010929742 0.005549009
000330 b8 47 6b bc 38 cb 22 bc 6f 9e 97 bc 35 cd 51 bd
       -0.014360361 -0.009936146 -0.018508164 -0.05122109
000340 ed 32 fa 3c b5 72 5b bc 17 da 69 3c 29 dc 0d 3d
       0.030541861 -0.0133940475 0.014273188 0.03463379
000350 1f b9 4e 3b f7 69 a4 bc 2d 11 87 3c f7 26 b4 bc
       0.0031543446 -0.02007006 0.016487682 -0.021991236
000360 2c f5 13 bc 99 5c 0a 3c ff 11 43 bc f5 75 b4 39
       -0.0090306215 0.008444929 -0.011906146 0.0003442016
000370 c7 9a 8e bd 91 7a 5c bd 2d 6e 9d 3c e6 4d 98 bc
       -0.06963115 -0.053827826 0.019217575 -0.018591832
000380 17 77 18 3d b2 14 77 bb 39 e4 34 3d 5e 56 53 3c
       0.037222948 -0.0037701544 0.044162963 0.0128990095
000390 91 a5 c3 3d 40 08 95 3c 61 64 a8 3b 50 51 9a bb
       0.09553064 0.01819241 0.005138919 -0.0047094002
0003a0 43 4c ac bb 42 5b bb bc 2f 42 f1 3b 51 c1 40 3b
       -0.0052581145 -0.022870664 0.007362626 0.00294121
0003b0 55 66 d6 3b aa 4a 2b 3d 68 e6 9d bc 26 fa 44 3a
       0.0065429606 0.041819252 -0.019274905 0.00075140817
0003c0 0a 5c c9 3a fb 4e 14 3c c8 36 9c bc d8 c9 3f 3c
       0.0015362513 0.009052034 -0.01906909 0.011705838
0003d0 c2 ab 2a bd 08 f6 09 3c cf b6 d8 3d ca 52 d9 3c
       -0.041667707 0.008420475 0.10581743 0.026528735
0003e0 9b 38 a2 bb 44 b3 e5 bb 1c 67 aa bb 84 9c e9 3c
       -0.0049505956 -0.0070098955 -0.00520028 0.028517015
0003f0 5a 56 fd bb e0 11 8c bd 9a 3a 5a bc b6 86 b4 bd
       -0.007731241 -0.06839347 -0.013319636 -0.088147566

a2c_network.mu.bias f4 [7]
000000 8a 9a 1e 3d e9 48 9b bc bf 87 88 bd df 9a b0 3c
       0.0387216 -0.018955665 -0.066665165 0.021558223
000010 bb d8 1f 3e 50 fa 62 bd 69 e4 b9 bd
       0.1561002 -0.055414498 -0.09076769

exp_avg f4 [7]
000000 f6 cf 92 b8 4e 08 37 b7 2b 6b 36 38 bf 23 7c 39
       -7.000558e-05 -1.0909584e-05 4.349199e-05 0.00024045909
000010 81 67 0d ba 5e dc d2 b8 4f e6 56 39
       -0.00053941464 -0.00010054627 0.00020494427

exp_avg_sq f4 [7]
000000 9a 17 03 36 c3 71 08 36 d6 54 08 36 5e b5 f3 35
       1.953426e-06 2.0331797e-06 2.031496e-06 1.8157696e-06
000010 21 3f f4 35 9c 45 ff 35 1e c4 e5 35
       1.819779e-06 1.901924e-06 1.7118907e-06
